Assets/Models/EvoPlayer-gen3-150006.onnx (onnx, 805802 bytes, 17 tensors)

discrete_act_size_vector f4 [1, 5]
000000 00 00 40 40 00 00 a0 40 00 00 e0 40 00 00 40 40
       3.0 5.0 7.0 3.0
000010 00 00 80 40
       4.0

network_body._body_endoder.seq_layers.0.weight f4 [300, 34]
000000 26 87 88 bd 44 45 a8 3c 9f fd d5 3e 3c ee 9e 3c
       -0.066664025 0.02054084 0.4179506 0.019400708
000010 fe f0 a1 bd 40 67 3c 3b 96 0e 81 bd d3 ca ba bd
       -0.07907294 0.0028748065 -0.0630161 -0.09120717
000020 67 1b 1e 3e da e2 e2 be 37 1e 2a 3d cc fb 3e be
       0.1544014 -0.443137 0.04153272 -0.1865074
000030 6e b5 90 bd 60 bc 58 3e de 8d b8 bb 81 98 66 3d
       -0.07065855 0.2116561 -0.0056321463 0.056297783
000040 41 8c b6 3d 39 f3 b7 bd 6b cf 67 bd 5f 76 3c be
       0.0891347 -0.08981938 -0.056594294 -0.1840453
000050 7d ce 5d bc 1b d7 bf 3e 57 27 86 bd 36 f6 57 3e
       -0.013538 0.374688 -0.06550472 0.21090016
000060 f6 df a6 bd 79 92 74 bd 57 ff 9a bd 93 b0 c0 3e
       -0.08148186 -0.05971 -0.075682335 0.37634715
000070 c6 11 c5 be 48 dd b8 be 18 83 6a 3e bb 27 0c 3e
       -0.38490123 -0.36106324 0.22901571 0.13687031
000080 fd 19 87 3e cc 3d 90 3e 58 7b 3b be 3f ff 0e be
       0.26387015 0.28172147 -0.1830877 -0.13964556
000090 12 68 6b be f9 ea 04 3c 61 1f 3e be 8f 27 6f 3e
       -0.22988918 0.0081126625 -0.18566658 0.23354934
0000a0 73 4d 67 3e 89 7f 0d be 96 2d 33 be bd 00 c4 bd
       0.22588138 -0.13818182 -0.17497858 -0.09570453
0000b0 f7 09 35 bd 78 d4 1b bd 40 03 34 3e 9d 89 bd 3d
       -0.044198956 -0.038044423 0.17579365 0.09254763
0000c0 c8 33 a9 be 58 eb 80 be 1d 7c e6 bd 22 e2 54 be
       -0.33047318 -0.25179553 -0.112541415 -0.20789388
0000d0 85 84 86 3d a2 18 a6 3e 41 b5 66 bd 34 37 c8 bd
       0.06568245 0.32440668 -0.0563252 -0.09776154
0000e0 be b5 6e bd 23 c6 f4 be db ec 28 bd 89 98 7d 3d
       -0.05827879 -0.47807416 -0.041241508 0.061913047
0000f0 56 b2 94 be 6d ea 50 be 89 8f e8 3d 3a 10 ba 3b
       -0.2904231 -0.20401926 0.11355502 0.005678204
000100 15 e0 0b bd db 00 09 bc 86 78 b3 bd 60 67 e9 bc
       -0.03414925 -0.00836202 -0.087632224 -0.028491676
000110 f9 f0 91 3c 7d e1 94 3d f2 ff 21 bd fb f5 4a be
       0.0178151 0.07269571 -0.03955073 -0.19820397
000120 7d 52 7a bc 68 ae 38 be 9b 00 1f 3e c6 1f b6 3e
       -0.015278456 -0.1803528 0.15527575 0.35571116
000130 7a 21 9d be 1b 63 34 3e 53 16 cd 3c 4b 92 0e bd
       -0.30689603 0.1761593 0.02503506 -0.034807485
000140 f6 34 db 3d f2 54 21 bc d2 91 b3 3d 80 ef 09 3e
       0.10703461 -0.009846913 0.087680474 0.13470268
000150 ed e5 0f 3e 60 46 5b be 0f 3a 97 be 82 60 90 be
       0.14052553 -0.21413565 -0.29536483 -0.2819863
000160 1e 43 ec be 67 9a 85 bd d7 f1 47 3e f7 94 a5 3e
       -0.46144956 -0.065235905 0.19525848 0.32340214
000170 37 ec 17 be d6 bc b6 3d bb 0a 5c 3d 15 24 7c 3e
       -0.14836203 0.08922736 0.05372117 0.24623139
000180 3e 2a ef ba 36 91 48 3e c1 aa 0c 3d 42 32 81 3e
       -0.0018246842 0.19586644 0.03434253 0.25233656
000190 02 2c 41 be 29 49 08 bd 2a a8 1e bb b6 db 79 3c
       -0.18864444 -0.033272896 -0.002420912 0.015250137
0001a0 b5 a1 c6 be b2 e8 82 3e c0 dd a0 bc f4 93 02 be
       -0.38795248 0.25568157 -0.019636989 -0.12751752
0001b0 e4 bb 2c 3c 1a b7 2b be f7 31 86 bd 3c 99 8b 3e
       0.0105428435 -0.16769066 -0.06552499 0.27265346
0001c0 02 09 ec 3b f5 18 6a bd 97 db 1c 3e dc 83 a1 be
       0.0072032223 -0.057152707 0.15318142 -0.31545913
0001d0 b3 cf 46 3c 23 ca 37 3b 85 1b 44 be c8 f5 d5 bd
       0.01213448 0.0028044067 -0.19151123 -0.1044727
0001e0 fb eb 33 be f4 3a a7 3d 4d 45 19 3e 7a 02 46 be
       -0.17570488 0.08165541 0.14967842 -0.19336882
0001f0 85 49 8f 3e 54 9e b0 bd 5b 35 7e be 80 d4 12 bd
       0.27985778 -0.08623949 -0.24825041 -0.035847187
000200 db a3 80 bd 14 21 ab bd 73 40 4c 3e 95 df 99 3e
       -0.06281253 -0.083559185 0.1994646 0.30053392
000210 ae 4c dc bd 7f 5e ed be 8f 1f 2d bd 6c 05 83 be
       -0.10756813 -0.46361157 -0.042266425 -0.25590074
000220 0f 90 11 3c e7 b0 af be 13 8b 94 be 61 80 42 3e
       0.008884444 -0.34314653 -0.29012355 0.18994285
000230 35 f6 a9 3e e0 35 8b 3d 00 66 93 3d 93 31 07 3e
       0.33195654 0.06797385 0.07197189 0.13202505
000240 12 7f 2b 3e e0 e6 04 3e 77 c5 d5 3e f2 a8 70 3c
       0.16747692 0.12978697 0.41752216 0.014688717
000250 e6 e5 91 3e 15 e2 49 3e cd 92 ac 3c 50 0a 6d 3e
       0.2849571 0.1971515 0.021066094 0.23148465
000260 c6 2d a6 3c bf fd b5 be 86 31 fd bd 22 d4 e3 3c
       0.020285498 -0.35545155 -0.123629615 0.027811114
000270 0e 56 d4 3c 99 2c dd bc 9c cb 15 bc 70 f7 1c 3d
       0.02591994 -0.026998805 -0.009142783 0.038321912
000280 a5 4d c0 be 21 81 8e 3e 16 17 b9 be 11 05 56 be
       -0.37559238 0.27832893 -0.36150426 -0.2090037
000290 7c d9 87 3e 30 73 99 3b d6 71 fb bb 54 30 87 be
       0.26533115 0.004682921 -0.0076734824 -0.2640406
0002a0 e1 c5 b8 bc 80 af 2e bc 91 46 c3 bd 08 49 aa 3d
       -0.022555294 -0.01066196 -0.09534944 0.08314711
0002b0 cb c4 66 be 5f cc 0a 3e cb c6 97 3d 90 5e 12 3e
       -0.22536008 0.13554524 0.074109636 0.14293885
0002c0 00 0c 60 bd c8 95 8c 3d 72 cd 08 bc 81 40 c3 bd
       -0.054698944 0.06864506 -0.008349763 -0.095337875
0002d0 70 99 0d be 8a c6 cd bd 70 e1 8c bd 1c 7a 23 be
       -0.13828063 -0.10047634 -0.06878936 -0.1596455
0002e0 10 88 fd 3d 2e bd 3d 3e 9d 24 be bd 4b 53 a1 3e
       0.123794675 0.18529198 -0.09284327 0.3150886
0002f0 a6 23 ed bc 3e 8f 25 3e 94 73 16 3e f4 5a 2d bb
       -0.028947663 0.16167924 0.14692527 -0.0026451917
000300 55 98 8b 3c 1e 3d 85 be 6d 6a bb bd 92 c2 59 3e
       0.017040411 -0.2602319 -0.091511585 0.21265629
000310 69 3c b7 3d 5a a8 1f be 90 7d 3f bb ce 06 9d bd
       0.08947069 -0.15591565 -0.0029219128 -0.076673135
000320 70 b5 34 bd 50 69 cb bd 43 9b 33 bd 92 c9 0f 3e
       -0.044118345 -0.09932196 -0.04384924 0.14041737
000330 08 fc 17 3e 26 ab 4b bd 0e 66 9e 3e f2 fd f7 3d
       0.14842236 -0.049723767 0.30937237 0.12108983
000340 56 0e d5 3d 66 8e d7 bd 26 ff f4 3a 18 4e 4c 3e
       0.10403125 -0.10525207 0.0018691763 0.19951665
000350 3e ea 39 bd 8e 47 8d bd d9 cc d4 bc 6b 80 96 bd
       -0.045389406 -0.068984136 -0.025976585 -0.073487125
000360 34 20 d9 3c 79 84 3c be fe 04 92 3d de 96 06 be
       0.026504613 -0.1840991 0.071298584 -0.13143489
000370 f0 a5 aa 3d cc ef 20 be cf 28 4d bd 4c 05 d3 bd
       0.08332431 -0.15716475 -0.050087746 -0.10303745
000380 2a bb 35 be 11 f7 f1 bd 20 9b e3 3e 42 38 b6 bb
       -0.17747179 -0.11814702 0.44454288 -0.0055609057
000390 67 29 0e 3d ee b1 a8 be 9b 33 ae be 57 ae e7 bb
       0.034707453 -0.3294825 -0.34023747 -0.0070703435
0003a0 e5 20 d2 3d 24 e7 65 3e dd 06 3a be 74 97 2d be
       0.102601804 0.22451454 -0.1816668 -0.16952306
0003b0 99 16 5d 3e bc 53 23 3e d1 37 b4 bd c1 84 82 3c
       0.21590652 0.15949911 -0.08799709 0.015932443
0003c0 23 38 91 3d 7f ea 11 3b d3 26 4a bd 7e cd 59 3e
       0.07090785 0.0022265015 -0.049353432 0.21269795
0003d0 6e 55 7f bd b5 db 13 be 59 da 92 be 35 28 0d be
       -0.06233733 -0.1443928 -0.2868221 -0.13784869
0003e0 cc 82 8e 3d f4 99 24 be bb b0 ff 3c db fb ec bd
       0.06958541 -0.16074353 0.031212201 -0.11571475
0003f0 f0 b7 03 be 64 2f bf 3c b9 08 51 be 83 c3 f7 3d
       -0.12863135 0.023338027 -0.20413484 0.12097838

network_body._body_endoder.seq_layers.0.bias f4 [300]
000000 1f 84 04 bb b2 29 38 3a 31 86 ee 3a 6f 64 ed 39
       -0.0020220352 0.0007025256 0.0018197951 0.00045278991
000010 93 71 13 3b b4 dd 4a ba 88 b3 5b bb ff 78 6a bb
       0.0022498115 -0.0007738725 -0.0033523757 -0.0035777686
000020 6f da f0 39 e6 d2 ae 39 a9 ef ce ba 8e 14 01 ba
       0.00045939113 0.00033344998 -0.0015787977 -0.00049240224
000030 69 80 f4 3a 49 f3 10 3b 1f 5d a3 39 4d 64 3c 3a
       0.0018653992 0.0022117666 0.00031159163 0.0007186577
000040 0d d3 24 3b 6f c4 90 bb e6 ab 81 38 b1 80 88 89
       0.002515021 -0.004417948 6.183218e-05 -3.286183e-33
000050 09 3f 11 bb 71 a9 36 bb 2c 04 f0 ba 0d b9 e1 ba
       -0.0022162816 -0.002787199 -0.001831179 -0.0017221287
000060 77 7e a4 bb b2 10 11 bb c7 ac 3a ba 0b 81 26 ba
       -0.0050199586 -0.0022135195 -0.0007121083 -0.00063516264
000070 c7 a2 47 39 cb b2 28 ba 08 30 f1 ba d8 7e b3 38
       0.00019038758 -0.00064353336 -0.0018401155 8.5590116e-05
000080 f0 c8 b4 ba 19 fb 97 ba 4e 7f 76 ba 9b b2 0c 3a
       -0.0013792794 -0.0011595219 -0.0009403125 0.00053671905
000090 9c c9 25 ba 0c 0b f6 39 32 fc cf 39 cf c7 08 3b
       -0.00063242926 0.00046929007 0.00039670017 0.0020871048
0000a0 01 ce ad ba cb 13 b9 bb c5 82 d9 2d b6 24 69 b9
       -0.0013260246 -0.0056481115 2.4728117e-11 -0.00022234287
0000b0 34 80 8b bb c7 13 b4 3a 4c 24 2d bb 5a bc 64 ba
       -0.0042572264 0.0013738804 -0.002641934 -0.00087255763
0000c0 2b ab 2f bb 7e 53 31 bb 85 40 0b ba 71 44 25 bb
       -0.0026804905 -0.0027057822 -0.00053120434 -0.0025217796
0000d0 4a b8 6a bb 21 8b bb bb 0e 59 02 3a f7 b2 c4 3a
       -0.0035815411 -0.0057233726 0.00049723766 0.0015006949
0000e0 f5 b7 b0 3a fe 11 8e 39 8e 47 5d 3b c6 00 a3 bb
       0.0013482558 0.00027097756 0.0033764574 -0.0049744574
0000f0 23 42 b9 3b bf e2 35 3b 77 83 0c bb 46 26 3b 3b
       0.005653636 0.002775356 -0.0021440664 0.0028556748
000100 75 9c a4 bb 3c 9f 11 bb 18 3a 1d 3a df 5a 96 bb
       -0.005023534 -0.0022220155 0.00059977314 -0.0045884694
000110 4a f7 d5 3b c8 a7 ec ba c3 55 9d bb c9 36 69 ba
       0.0065297233 -0.0018055374 -0.0048014834 -0.0008896408
000120 f6 56 5e bb ce 62 07 bb 6c 99 9a ba cc 77 3b 3b
       -0.0033926344 -0.0020658257 -0.0011794991 0.002860534
000130 58 bd 8b 3a 8d be 8e ba 52 d2 bd 3b 21 79 03 ba
       0.0010661287 -0.0010890529 0.0057928944 -0.0005015303
000140 d0 77 92 bb 70 53 10 bb 54 99 8b ba ca 9f 45 3a
       -0.004469849 -0.002202239 -0.0010650554 0.0007538764
000150 6e 4d df ba c7 64 19 ba af 25 d6 39 b2 cf 19 3b
       -0.0017036626 -0.0005851504 0.00040845337 0.0023469743
000160 ec d8 be ba 7f 9f 93 ba c7 eb 96 39 ae 65 ee 39
       -0.0014560497 -0.0011262744 0.00028785897 0.00045470655
000170 c0 16 d3 39 8e 03 c3 3a b4 99 b4 bb b7 85 bc ba
       0.00040262006 0.0014878379 -0.005511487 -0.0014383112
000180 17 41 d5 bb 52 9d 67 3a b0 38 e1 b9 ab b1 4f 3a
       -0.0065080035 0.0008835393 -0.0004295758 0.0007922898
000190 b9 a5 16 3b 25 5d 02 bb df 22 f1 ba b9 7e 47 3b
       0.0022986962 -0.0019891944 -0.0018397233 0.0030440523
0001a0 a6 e4 9e b9 6b 84 ee b9 5b 6b b8 b9 66 58 ae ba
       -0.00030306465 -0.00045493557 -0.000351752 -0.0013301491
0001b0 a9 9b 9f 3a e8 6e 89 3b a0 15 07 3b ca 29 f2 3a
       0.0012177128 0.0041941293 0.0020612255 0.0018475589
0001c0 af 8e b5 ba 7b 9b c0 ba 85 fd 1e bb 6d 8c 9e 3a
       -0.0013851727 -0.0014694774 -0.0024259996 0.0012096294
0001d0 27 3b 9a b9 f4 d8 23 3b a7 71 b3 3a 01 be 4e 38
       -0.0002941724 0.002500114 0.0013690487 4.9291182e-05
0001e0 58 11 91 3a 79 83 a8 bb ba 2e d5 b9 2b c2 d6 38
       0.0011067791 -0.005142626 -0.0004066134 0.00010240482
0001f0 f1 04 44 ba c0 57 94 3b c0 ed 3a bb 3f a5 c4 3a
       -0.0007477543 0.004527062 -0.0028523058 0.001500286
000200 04 6f 46 3a 85 3e 0a 3a d0 8d 5c bb a3 22 2a bb
       0.0007569643 0.00052735984 -0.0033653863 -0.0025960586
000210 e2 2e 21 ba 9a fd 1d bb 2a 12 81 ba 6f ae 26 3a
       -0.00061486487 -0.0024107457 -0.0009847332 0.000635839
000220 e6 c4 4d 3b 1e 86 ae bb b3 a3 a9 3a b4 3b b3 ba
       0.0031397878 -0.0053260466 0.0012942463 -0.0013674409
000230 25 d0 cc 38 ee 2b 10 bb 2b c4 82 bb 50 8b 4c bb
       9.766248e-05 -0.002199884 -0.00399067 -0.0031210966
000240 47 3e 07 3b 1d 15 66 bb f3 ab d7 b9 8e 94 08 3b
       0.0020636485 -0.00351078 -0.00041136108 0.0020840499
000250 c2 dc bf bb 6d 96 15 3b eb 9e 09 3b 57 c3 d7 ba
       -0.005855174 0.0022825256 0.0020999264 -0.0016461414
000260 ba c4 9a bb 47 66 55 ba 5b 46 72 bb 42 e7 dd ba
       -0.0047231587 -0.00081405457 -0.0036968205 -0.0016929882
000270 83 17 4a 3b ff c1 c0 ba 9e 4b 2a ba c2 ed ee ba
       0.0030836768 -0.0014706253 -0.0006496253 -0.0018228816
000280 e5 c9 a8 ba 0e 40 c0 ba 25 7d af ba f1 84 01 3a
       -0.0012877552 -0.0014667527 -0.0013388736 0.0004940769
000290 e9 3d 97 b8 7a a4 fd 3a a3 35 56 3b f8 b6 b2 b8
       -7.211773e-05 0.0019351386 0.0032685779 -8.521782e-05
0002a0 1c d1 57 ba 1a cf 50 ba 91 04 87 bb b6 7c e8 b8
       -0.0008232759 -0.0007965431 -0.0041204174 -0.00011085851
0002b0 c9 47 34 bb 47 13 fc b9 bc a2 7d 3a 18 cc c9 bb
       -0.0027508608 -0.00048079548 0.00096754334 -0.006158363
0002c0 3e 53 4f ba 3c 38 ac ba d4 4f 8a 3a 54 64 18 3b
       -0.00079088274 -0.0013139318 0.0010552355 0.002325316
0002d0 44 6f 8d 39 62 f6 bb ba 31 3d ab 3a 1c 49 41 3b
       0.00026976515 -0.0014340396 0.0013064501 0.002949304
0002e0 b1 20 09 2f 1c bb 47 bb 51 55 20 bb 1c 43 99 3a
       1.2471692e-10 -0.0030476516 -0.0024464915 0.0011692974
0002f0 dc 76 82 ba d2 17 88 3a b3 15 f6 3a 9d 26 ac ba
       -0.0009953636 0.0010383076 0.0018774777 -0.0013134066
000300 2f f9 db ba ff 50 d1 ba cd de 09 ba a6 0b dd ba
       -0.0016782637 -0.0015969573 -0.0005259335 -0.0016864433
000310 e6 41 d9 ba f5 22 2b 3a 57 15 8f ba ac f3 49 ba
       -0.0016575425 0.00065283413 -0.0010916394 -0.00077038514
000320 85 ff 7a ba 62 11 88 39 80 5a af bb 77 ba 77 ba
       -0.00095748185 0.00025952893 -0.0053513646 -0.00094500877
000330 a6 95 8b 3b ba 1e fe b9 db a8 a5 bb 7f a3 f1 3a
       0.004259783 -0.00048469548 -0.0050555295 0.0018435566
000340 7e 49 e9 3a 9b 44 3a bb e4 4d 37 bb 26 4f 09 bb
       0.0017798392 -0.002842224 -0.002797001 -0.0020951717
000350 2a b7 1f bb c3 fc 49 3b b3 69 4b 3a 8f 20 3c 3b
       -0.002437065 0.0030820824 0.0007759586 0.002870593
000360 f1 c2 28 bb 8f 60 da ba f9 00 18 39 81 b0 a9 b9
       -0.002575096 -0.0016660857 0.00014496212 -0.00032365698
000370 0e d2 90 b8 58 32 19 ba 29 b2 20 ba a1 67 3d 3b
       -6.905581e-05 -0.00058439886 -0.00061300636 0.002890088
000380 42 bf 84 bb 32 37 0e 3b c3 cd a3 b9 24 49 b5 b9
       -0.00405112 0.002170038 -0.00031243087 -0.00034577504
000390 ca 1d 16 bb ce 26 0b bb e6 02 b9 3a d9 97 05 ba
       -0.002290594 -0.0021232846 0.0014115244 -0.00050961744
0003a0 58 ba ca 39 79 2a 3a bb 33 4c 9e 3b 48 cc d9 39
       0.0003866728 -0.0028406663 0.004830861 0.00041541667
0003b0 9e 4a a9 39 5d e3 df b9 dc 0f c8 3a 19 bd 6c ba
       0.00032289786 -0.00042703273 0.0015263516 -0.00090308633
0003c0 15 ec 3e b9 44 c0 ca ba 16 74 e9 38 d4 4a 02 ba
       -0.0001820776 -0.0015468677 0.000111319285 -0.00049702567
0003d0 fe 63 01 bb 9e 3d 02 bb 51 46 de bb 61 ef 16 b9
       -0.0019743438 -0.0019873152 -0.0067832847 -0.0001439429
0003e0 94 48 e0 ba c1 1d a9 39 d0 93 02 b9 a0 88 28 b7
       -0.0017111474 0.0003225636 -0.0001245283 -1.0045391e-05
0003f0 04 dd 80 3a 0c 39 69 bb 7f e6 29 bb 6d 47 1d bb
       0.0009831493 -0.003558698 -0.002592474 -0.0023998872

network_body._body_endoder.seq_layers.2.weight f4 [300, 300]
000000 00 89 26 3d 1f 34 bf bc 58 94 40 3d 04 0b cb 3c
       0.040657997 -0.023340283 0.04701647 0.024785526
000010 16 ae 20 3d 76 c8 33 3c 62 a5 26 3d 74 9b 1c bd
       0.03922852 0.010973087 0.040685065 -0.03823419
000020 04 df 99 bd 48 12 b4 bc 19 48 8d bd 7f b9 7d bd
       -0.0751324 -0.021981373 -0.06898517 -0.06194448
000030 bf 05 64 bd 4b 99 90 3d 39 85 1a bd a7 4d 25 3c
       -0.055669542 0.07060488 -0.037724707 0.010089315
000040 c9 3a 6a 3c 34 bc 6c bd d6 df c2 bd 3f 80 f9 3b
       0.014296242 -0.057796672 -0.095153496 0.007614165
000050 c1 3c 17 3d 57 fb ae bc d4 40 8f bd 1d 68 7b 3d
       0.036923174 -0.021360083 -0.06994787 0.061378587
000060 a0 85 bc 3d 23 d7 8a bb da 0f a6 3d c8 bb b5 3c
       0.092051744 -0.004237072 0.08108492 0.022184268
000070 f3 8d 87 3d 76 89 bb bc b7 e2 58 bd d4 26 a1 3d
       0.066188715 -0.022892695 -0.052950587 0.07868734
000080 35 e8 34 bc ba 71 05 be 50 ac 5d bc 5e cf ff 3c
       -0.011041691 -0.13031664 -0.013529852 0.03122681
000090 4c 18 27 3e be 31 01 3e 88 fd 1e 3c 49 79 e9 bc
       0.16317862 0.12616631 0.009704001 -0.028500216
0000a0 30 d3 35 bd 8c 07 01 bd dc fc 3b 3b c1 a0 dc bc
       -0.044390857 -0.031501338 0.0028684651 -0.026932122
0000b0 44 32 65 3d f7 87 e5 3c 54 1a 04 3c b0 78 3f ba
       0.05595614 0.028018935 0.008062918 -0.00073040556
0000c0 b2 dc 14 bd a1 5f 7c bc 8d bb 70 bc 04 93 83 bc
       -0.036343284 -0.015403659 -0.014693153 -0.016061313
0000d0 f2 fb 0f bd 82 6a 5e bd f3 a0 f1 3c 8c 58 22 bd
       -0.035152383 -0.054300793 0.029495692 -0.039635226
0000e0 51 1b 3a bc f6 e2 a7 bd 5b 75 49 bc 7b 40 92 3a
       -0.011359052 -0.08197586 -0.012296046 0.0011158133
0000f0 29 3f aa bd db e4 e7 3d a0 e3 80 bc 4c 01 9d bd
       -0.08312828 0.113229476 -0.01573354 -0.07666263
000100 a3 d2 0c 3d a3 38 04 bd 94 0f 85 3b dd dc d0 3b
       0.034380566 -0.032280575 0.004060695 0.006373985
000110 6f c5 e3 bd 0e c0 5d bd 3f 9f 89 bb f2 1d 95 3c
       -0.11121642 -0.054138236 -0.004199892 0.018202756
000120 55 99 ab 3c d1 84 60 bd 05 7b 9d 3b 42 aa 98 bc
       0.020947138 -0.054814164 0.004805925 -0.018635873
000130 70 e0 fb bc b6 08 38 bc ec 11 79 bd a1 95 82 3d
       -0.030746669 -0.011232546 -0.060808107 0.06376196
000140 bf dc 26 bd d9 fb 81 bd a4 bb ed bc 10 51 a1 bd
       -0.040737864 -0.06346864 -0.029020138 -0.078767896
000150 b3 2f f3 bb 0b 3e 18 bd 3f cf e9 3d 48 e8 6d bd
       -0.0074214577 -0.037168544 0.11416482 -0.05808285
000160 f1 96 2b 3d 8e e7 e3 bb e6 7f e6 bb fa e6 b8 bc
       0.041891996 -0.0069550937 -0.0070342897 -0.022571076
000170 b5 c3 97 3c 49 1b 3b 3d 5d 0d d1 3c ea f0 aa bd
       0.018525938 0.045680318 0.025519067 -0.08346732
000180 ef aa 78 bd 3b a5 d4 3b da 6d f4 ba 4a e7 3b be
       -0.06070989 0.0064894236 -0.0018648461 -0.18349949
000190 fd 52 29 bc 86 70 21 bc 9e 6f 4e bc 1a 8b cd 3c
       -0.010334727 -0.009853488 -0.012599854 0.025090743
0001a0 28 dd 06 bd 8d 5f cf 3d a9 1d 97 bd 1d 50 f4 bc
       -0.032925755 0.10125647 -0.07378704 -0.029823357
0001b0 6f da 8f bd a2 75 e4 b9 47 3b 12 3d 85 fa b3 bd
       -0.07024085 -0.00043575192 0.035701063 -0.08788017
0001c0 eb 19 ec 3d 22 c6 9f bd a2 e8 61 3c 83 dc 2e 3d
       0.11528381 -0.07801463 0.013788374 0.042690765
0001d0 c2 b3 17 3d 38 f9 c8 bc bd 86 2a bd eb f8 0a 3e
       0.037036665 -0.0245329 -0.041632403 0.13571517
0001e0 07 4d 5f bc 75 38 11 3d b5 09 7a 3c 8e d4 6e bc
       -0.013629205 0.035454232 0.015261103 -0.014577044
0001f0 71 ec 82 bd 1e 9f 15 bd 52 a0 90 3c c8 88 00 3d
       -0.06392754 -0.0365287 0.017654572 0.031380445
000200 9c cc 6c bc d5 55 25 3e 8f 52 6c 3d 97 07 13 3e
       -0.01445308 0.16146024 0.05769592 0.14358364
000210 d7 8e ad bc 5c 59 c7 3d f4 a6 b8 bc 6d 68 99 3d
       -0.021186275 0.09733841 -0.022540547 0.07490621
000220 1f b2 57 3d 31 81 f1 3d ae d9 bd b9 06 63 fd bc
       0.052660104 0.117922194 -0.00036211073 -0.030931007
000230 36 11 c7 bd 89 00 12 3d 08 98 4c bc dc a7 e4 bb
       -0.097200796 0.03564504 -0.012487419 -0.006978018
000240 b6 ec d6 bc de 4a 7d bd 76 c5 40 3c 44 d7 86 bd
       -0.02623592 -0.061838977 0.011765828 -0.065840274
000250 4d 1e 87 3d eb a6 a2 bd db 0b 09 bd e4 09 1b bd
       0.06597576 -0.07941993 -0.033458572 -0.03785123
000260 85 64 0a 3c 5d 10 b7 3c cd c3 39 bc e6 21 27 bd
       0.008446817 0.02234667 -0.011338186 -0.040803812
000270 92 27 35 bd 5d 1d 1e be c4 ec 1f bd 8e 6b 36 3d
       -0.04422719 -0.15440889 -0.039044157 0.044536166
000280 98 06 40 3d fa 3d 95 3d 6b e4 3c 3c d0 fa c0 bc
       0.04688129 0.07287212 0.011529068 -0.023557097
000290 a8 35 7e bc 56 39 d4 bc 1e e4 79 bc b3 14 15 3d
       -0.015515722 -0.025906246 -0.015252141 0.036396693
0002a0 a3 52 00 3c d9 02 85 3d 23 6f 27 3d aa 45 d2 3c
       0.007832202 0.06494684 0.040877473 0.025667984
0002b0 ad 88 89 3d 97 ee c8 3c 13 94 e7 bc 13 23 80 bd
       0.06715522 0.024527831 -0.02826885 -0.0625669
0002c0 03 31 01 bd ee da 27 bd 16 dc fc bd 80 40 37 3d
       -0.03154088 -0.040980272 -0.123466656 0.044739246
0002d0 05 87 9b 3d fc d6 62 bc aa 22 b9 bd 37 bc 4e bd
       0.07594112 -0.013845202 -0.09039815 -0.050472464
0002e0 fc de 6a bb ed 51 83 3b 09 6c 20 3d 9f cb e9 3c
       -0.0035838475 0.004007569 0.03916553 0.028539477
0002f0 9c 63 78 3d 46 a8 7c bd 02 58 05 bc 9e ee 26 3d
       0.06064187 -0.061683916 -0.0081386585 0.040754907
000300 f7 0e 97 bc 9c a5 02 3c 01 51 85 bd f5 6c b2 3c
       -0.018439753 0.007974055 -0.06509591 0.02178047
000310 4b 33 9a 3c e7 2e a2 bd 45 2f 01 bc 96 09 b5 3c
       0.018823287 -0.07919102 -0.007884805 0.022099297
000320 3e cb e6 bc 6a 0d dc bd 58 6a e5 bd 00 3f c8 bd
       -0.028173085 -0.10744746 -0.11201924 -0.09777641
000330 88 c3 e4 bc 8e 20 8f 3d fd 57 7f bd 72 de 04 bd
       -0.027925268 0.06988631 -0.06233977 -0.032438703
000340 85 00 98 bd 0f 08 46 bc dd 12 be bc 0b bf 38 bd
       -0.07421974 -0.012086882 -0.023202354 -0.045104068
000350 50 95 71 3b 2a 26 03 bb a6 e1 84 bc 15 1e aa 3d
       0.0036862679 -0.0020011761 -0.016220879 0.08306519
000360 98 f8 19 bd 53 ff e3 bd 54 9a 71 3d 3b f3 46 bd
       -0.037590593 -0.111326836 0.05898507 -0.048571806
000370 e5 02 bb 3d 5a 6d 2b 3d 91 24 2d 3c c2 77 dd 3c
       0.091314115 0.041852333 0.0105678 0.027034644
000380 38 7f c0 3d 2e 89 36 3d 70 c2 08 3d b0 44 38 3c
       0.09399265 0.04456442 0.033388555 0.011246845
000390 76 26 d7 3c b6 da 77 3d d7 40 de bd 0b 11 af bd
       0.026263457 0.060511313 -0.10852211 -0.085481726
0003a0 ba ee 42 3d 55 b5 b5 bc 83 5f 07 be 87 d0 42 bb
       0.04759095 -0.022181192 -0.13220029 -0.0029726343
0003b0 58 f9 f7 3b 9b 0d 79 3d 7c b4 08 bd 49 64 b9 3c
       0.007567566 0.06080399 -0.03337525 0.022630828
0003c0 bd 7b 3c bd 69 9a 04 3d 0c ee ab bd de 2c a9 bd
       -0.046016444 0.03237382 -0.08395013 -0.08260511
0003d0 ad 73 8a bb db 9e 27 3d df 9a de 3c 38 dd 8e bd
       -0.0042252154 0.04092298 0.027173458 -0.06975788
0003e0 45 a6 c0 3d 50 c5 71 bd 66 44 f7 bb 2b 10 d2 bd
       0.094067134 -0.059026062 -0.0075459955 -0.1025699
0003f0 be 2c ab bc fa 55 6c 3c 53 0e 99 3d a0 58 0c 3d
       -0.020895358 0.014424795 0.07473435 0.034264207

network_body._body_endoder.seq_layers.2.bias f4 [300]
000000 d0 86 d8 ba 37 23 90 3a be 86 8a 39 71 5f 62 ba
       -0.001651967 0.0010996823 0.00026421802 -0.00086354377
000010 5f a1 3a bb a3 71 94 ba bf 7d a1 38 76 e0 0b bb
       -0.0028477532 -0.001132537 7.7005e-05 -0.0021343506
000020 48 4c 84 b9 0e 32 0a ba 45 8e ba ba e7 44 34 b6
       -0.00025233836 -0.0005271741 -0.0014233073 -2.6862197e-06
000030 a4 d1 55 3b 0d bd 32 bb 73 f3 11 3b 26 c7 c9 ba
       0.0032626176 -0.0027273328 0.0022270351 -0.0015394434
000040 ef 91 1d 3a 17 8a 92 3a f8 cd cf ba b4 27 f7 ba
       0.00060108205 0.001118007 -0.001585423 -0.0018856437
000050 5a a7 f0 06 00 96 f0 39 1f b1 3f bb f8 00 d4 3a
       9.052387e-35 0.00045888126 -0.002924986 0.0016174605
000060 c4 31 40 bb 09 9c 9d bb b0 0d 07 bb 7d bf 31 bb
       -0.0029326538 -0.0048098606 -0.0020607524 -0.0027122193
000070 ca f0 0e 3a 95 8e f2 3a c4 7e 80 2c c4 74 0d bb
       0.00054527505 0.0018505628 3.6520526e-12 -0.002158449
000080 9e 4e db b9 ae 76 6e b9 11 be cf b8 e4 d5 6a ba
       -0.0004182951 -0.0002274166 -9.905932e-05 -0.0008958264
000090 51 ff ee b9 55 f4 03 bb 90 73 97 ba 7c 67 01 bb
       -0.00045585123 -0.0020134647 -0.0011554826 -0.001974552
0000a0 c7 21 1e b9 ad 99 0f bb fc 92 00 3b ee d8 90 3a
       -0.00015080637 -0.0021911666 0.001961886 0.0011050978
0000b0 c5 56 e1 39 8b ea 98 ba 4b b6 3d bb de 49 ec ba
       0.00042979993 -0.0011666579 -0.0028947766 -0.0018027385
0000c0 f5 d4 c5 39 81 d2 0f bb 4a ea 8f bb d8 b8 f3 3a
       0.00037733433 -0.0021945538 -0.004391943 0.0018594516
0000d0 f3 37 17 3b 00 f7 91 3b 91 36 d0 2c e4 c4 e3 ba
       0.002307412 0.0044544935 5.9177736e-12 -0.0017377404
0000e0 cd 9a ce 3a 49 09 b1 ba d5 3a f9 ba e7 ea 5a b9
       0.0015762687 -0.0013506796 -0.0019014726 -0.00020877608
0000f0 ba 82 cc ba 7a 1b 0b bb 36 83 98 3a ef 92 bc a0
       -0.0015602924 -0.0021226094 0.0011635784 -3.1945671e-19
000100 87 d6 83 ba 15 3d e9 ba cf 5d b5 3a 0c c7 bb ba
       -0.0010058441 -0.0017794693 0.0013837161 -0.0014326288
000110 e7 18 84 ba 41 ca 81 bb 94 96 c5 ba 4c 41 2b 3a
       -0.0010078222 -0.003960878 -0.0015074783 0.00065328623
000120 06 54 01 bb 98 eb b2 3a dd 89 9e b9 01 47 c8 ba
       -0.001973392 0.0013650535 -0.00030238825 -0.001527995
000130 3f 15 df ba f4 b7 52 3b 3e 1b c2 3a fa 3e 83 3a
       -0.0017019882 0.0032153102 0.0014809144 0.0010013275
000140 e6 cb 79 bb 47 17 39 bb d1 b5 47 ba 27 78 80 bb
       -0.0038115918 -0.0028242634 -0.00076183403 -0.0039205733
000150 b8 15 9e 39 c4 c9 55 b9 34 bb d9 ba 8e 5f ea 3a
       0.0003015229 -0.00020388426 -0.0016611577 0.0017881261
000160 6c 75 06 bb a2 1f 2b 39 e4 46 7b bb 7d 11 80 bb
       -0.0020516766 0.00016319615 -0.0038341815 -0.0039083348
000170 19 fc 06 ba 34 13 2b 3b ca 17 c2 3a 01 c9 43 bb
       -0.000514926 0.0026103975 0.0014808115 -0.0029874446
000180 78 56 0a 3b b6 e8 4c ba 0e 06 b2 ba 26 d9 80 3a
       0.0021108668 -0.0007816659 -0.0013582127 0.000983034
000190 60 2b 94 ba 08 ce a1 ba 7f 99 56 3b f6 e5 09 ba
       -0.0011304431 -0.0012344727 0.00327453 -0.0005260402
0001a0 9d bb 23 39 c5 a2 2c 0e 17 17 31 3b b6 f0 3b 3a
       0.00015614783 2.1279008e-30 0.002702182 0.00071693526
0001b0 91 7c e7 39 40 98 a4 ba d7 06 c8 ba 77 24 71 bb
       0.00044152563 -0.0012557581 -0.0015260827 -0.0036795416
0001c0 98 ad 70 b9 d7 47 32 bb 52 a4 00 0c 17 00 6b bb
       -0.00022952852 -0.0027203464 9.91021e-32 -0.0035858208
0001d0 5f 24 0d 3a 72 2d a3 b3 1f 82 28 ba 05 83 8c ba
       0.0005384143 -7.5985454e-08 -0.0006428081 -0.0010720199
0001e0 37 d4 54 ba 22 49 4b 39 3f 27 9b bb 10 25 48 ba
       -0.00081187807 0.00019386833 -0.004734903 -0.0007634917
0001f0 c7 d7 ce ba e4 b8 a1 bb 0f db 41 bb 3b d0 4e bb
       -0.0015780859 -0.0049353708 -0.0029580032 -0.003155722
000200 9d 7c 52 3a e8 1a 5c bb 32 91 d3 ba ee 61 81 ba
       0.0008029433 -0.0033585373 -0.0016141294 -0.0009871104
000210 1d 20 7d ba 00 00 00 00 e0 12 83 3a 12 60 49 ba
       -0.00096559693 0.0 0.0010000132 -0.0007681857
000220 db d5 f6 ba 4a 5a 66 3b b8 dc aa bb 15 56 f9 ba
       -0.0018832044 0.0035149031 -0.0052143 -0.0019022847
000230 a4 ee 8a bb 43 e9 01 39 4f 49 70 ba 4b b0 d0 ba
       -0.004239874 0.00012389295 -0.0009166197 -0.001592168
000240 fa f6 5a 3a 73 c3 df 3a 6a 4d ac ba 2c ca 97 3a
       0.00083528424 0.0017071798 -0.001314563 0.0011580638
000250 df d8 6c ba 23 4b 2f ba fd 61 37 bb 0e 5b 5a a9
       -0.0009035002 -0.00066869165 -0.002798199 -4.84847e-14
000260 8d 5a 4a 3b f2 4c 0b ba 60 f5 72 ba 8b 17 f4 b9
       0.0030876726 -0.0005313895 -0.0009268131 -0.00046556848
000270 13 d1 77 ba aa 0d ab b9 8e 82 6c 08 ef 58 19 bb
       -0.0009453457 -0.00032625842 7.1172133e-34 -0.0023398956
000280 b5 fd 3f bb 39 b5 8b b9 dd 5a 84 bb ce a5 62 3b
       -0.0029295508 -0.00026647167 -0.004039152 0.003458369
000290 aa 54 f3 3a a1 b6 39 b6 8d 3d a4 ba 39 e9 55 bb
       0.001856466 -2.7673452e-06 -0.0012530551 -0.0032640232
0002a0 93 50 9d 39 27 7e f0 38 7e 20 8c 3a 2d 8a 2f 3a
       0.00030005406 0.000114675895 0.0010690836 0.000669631
0002b0 7c 1a 59 b9 55 61 2e ba 2b 5e e3 ba da 6f 4d 3a
       -0.00020704599 -0.0006652077 -0.001734679 0.00078367966
0002c0 c1 c2 25 ba 69 aa 0c bb 74 54 89 bb 6f 57 88 3a
       -0.0006323271 -0.0021463877 -0.004190976 0.0010402034
0002d0 fc a7 51 18 fe 1a 7c bb 81 9a 4e 3a d5 0d 44 bb
       2.7097427e-24 -0.0038468237 0.0007881299 -0.002991547
0002e0 8d f4 ac b8 53 f9 48 3b 04 52 dc 3a d5 d5 9e ba
       -8.24715e-05 0.0030666187 0.001680911 -0.001211817
0002f0 74 04 3f 3b 67 4b 10 2a a1 ac 61 bb 93 d5 3a bb
       0.0029146941 1.281593e-13 -0.003443517 -0.0028508648
000300 33 f9 79 ba eb 12 1b 94 80 ff 97 3a 36 3a b1 3a
       -0.000953573 -7.829231e-27 0.0011596531 0.0013521377
000310 37 f0 cb 3a ea 1a eb 9d de b9 44 bb aa 5a 10 3b
       0.001555926 -6.223181e-21 -0.0030018012 0.0022026696
000320 a0 c8 6a ba 59 4d cf b9 b1 4e fd 39 eb a1 e5 ba
       -0.0008956287 -0.00039539745 0.0004831455 -0.0017519569
000330 ac 88 9c bb 2f 92 3e ba fe 8f c2 b9 0b b7 3f bb
       -0.0047770347 -0.0007269708 -0.00037109846 -0.002925339
000340 a0 0d 57 ba e9 b1 a1 ba 21 1b ea b9 2d f8 3f bb
       -0.00082036294 -0.0012336347 -0.0004465217 -0.0029292211
000350 60 52 03 3a f6 70 9a ba d9 d5 be ba 4a 86 39 ba
       0.0005009528 -0.0011782933 -0.0014559581 -0.00070772006
000360 8d ce 2a bb a9 31 ff 39 ac c2 fb 37 81 85 2c 3b
       -0.0026063055 0.0004867439 3.0012183e-05 0.0026324692
000370 9c 2e 9d 39 74 0a f8 b9 51 ea 9d bb f3 92 d5 ba
       0.000299801 -0.00047310034 -0.0048191925 -0.0016294405
000380 00 5c 88 ba c4 fb cf ba b1 15 0c bb 54 f0 18 bb
       -0.0010403395 -0.0015867879 -0.0021375234 -0.0023336606
000390 bb 3b a9 ba 21 64 4f 3a 85 2c a9 ba 9c 87 3f b4
       -0.0012911478 0.0007911344 -0.0012906945 -1.7837596e-07
0003a0 5b ad f1 3a fa 55 16 ba fc 0c 90 ba 51 06 16 b9
       0.0018438505 -0.00057348574 -0.0010990198 -0.00014307468
0003b0 04 c3 b0 ba 1f 28 9d 3a a8 b8 2c 3b 46 18 82 3a
       -0.0013485854 0.0011990106 0.002635518 0.0009925447
0003c0 0b 09 62 ba da 1d 02 b9 05 ff 53 bb d3 8b 18 bb
       -0.00086225633 -0.00012408887 -0.0032348048 -0.00232767
0003d0 f3 2a 65 bb 8a 4e 3a ba 8e 90 af bb 9c 37 e7 ba
       -0.0034968227 -0.000710704 -0.0053578084 -0.0017640474
0003e0 43 87 11 bb 32 2f 81 bb 39 36 a6 ba af 42 71 ba
       -0.0022205866 -0.0039423937 -0.0012680955 -0.0009203357
0003f0 4b 54 e5 ba a6 9a c8 3a 68 10 92 3a c9 c4 4d 3a
       -0.0017496435 0.0015304878 0.0011143805 0.00078494527

network_body._body_endoder.seq_layers.4.weight f4 [300, 300]
000000 9f 96 08 3c 44 68 c0 bd 0e 43 3b 3d d4 1e b2 3c
       0.008336692 -0.09394887 0.045718245 0.021743216
000010 db 9b 30 3e 09 80 9b 3d 56 a4 82 3c 64 32 7b bb
       0.17246954 0.0759278 0.015947502 -0.0038329596
000020 cc de 51 3c 17 2a 00 bd 1a a4 6b 3c 86 77 74 3d
       0.012809467 -0.03129014 0.014382387 0.0596843
000030 8e e4 28 bd 7a a4 19 3d 7b 9b d3 3c ce 2b 7e bc
       -0.04123359 0.037510373 0.025830975 -0.015513374
000040 0d ef 73 3c 5b 34 ca bd 72 c9 c2 3d 12 64 87 3d
       0.014888537 -0.09873267 0.09511079 0.06610884
000050 17 cd 01 bd 3e 68 34 bd 17 06 0c 3d 02 b5 1a 3d
       -0.03168973 -0.044044726 0.034185495 0.03777028
000060 b4 51 a8 bd 25 a3 a5 bc 3a 43 bb bd 88 3d fc bb
       -0.08218709 -0.020219395 -0.09143682 -0.007697765
000070 69 e8 e6 3c b8 ef b9 bc a3 6d 87 bc 53 f7 ec 3c
       0.028186994 -0.022697315 -0.016531771 0.028926527
000080 e1 e1 71 bd 02 6b a4 bd b5 dc cb 3c 01 96 b2 3d
       -0.059053306 -0.080282226 0.024885515 0.08720017
000090 f4 e9 be bd 25 b4 fc ba ea 81 2b 3b e7 84 d7 ba
       -0.09321967 -0.0019279761 0.0026169964 -0.0016442806
0000a0 4e d4 7c 3d b0 cf 34 bd d1 9b 47 3c 1d 9a f9 bc
       0.061725907 -0.04414338 0.012183146 -0.030468995
0000b0 a3 bc ee 3b 2d 9f 96 38 a5 fe f6 3c d7 c3 91 3d
       0.007285671 7.182206e-05 0.03015072 0.071174316
0000c0 b2 41 e6 bd 55 f5 fc bc 82 23 88 3d a3 b5 06 bd
       -0.11242999 -0.030878702 0.066473976 -0.032888066
0000d0 fc c5 81 ba 5e d9 b4 3d 44 96 95 3d 1e 1d 53 bd
       -0.0009900923 0.08830522 0.073040515 -0.05154144
0000e0 69 35 45 bd df 10 c4 3d c8 48 48 3b 71 8a 48 3c
       -0.04814664 0.095735304 0.003056096 0.012240038
0000f0 ac ab 85 ba a0 5a 18 be cd 8f 99 bd 2c 8b 1f 3d
       -0.0010198257 -0.1487832 -0.07498131 0.038951084
000100 88 39 c9 3a f2 7a ad bd 82 e6 67 bd b7 27 bf 3a
       0.0015352229 -0.084707156 -0.056616314 0.001458398
000110 41 bb 98 bc 85 1b 32 bd 28 1f 7e bd 5b 92 d8 bc
       -0.018643977 -0.043483276 -0.06204143 -0.026436975
000120 73 49 63 bc c4 7a 89 bd d9 9d 08 bd 6a 9a c2 3a
       -0.013872492 -0.06712869 -0.03335366 0.0014847044
000130 99 b5 8e 3d 19 bf b2 3c 6b c9 5a bd fc 44 fb 3c
       0.06968231 0.021819638 -0.053414743 0.030672543
000140 aa ec 07 3d f1 9c a2 bc 84 d8 b2 3d d8 86 b3 bd
       0.033184685 -0.019850226 0.08732703 -0.08765954
000150 8f 7d 7b 3c 9f 89 64 3d a1 49 8f bc 9a 46 af 3d
       0.01534976 0.05579531 -0.017491164 0.08558388
000160 66 f3 d1 3a a7 99 5d b9 2f 81 e9 3d 9b ad 95 bd
       0.0016017973 -0.00021133442 0.11401593 -0.07308503
000170 f3 b7 74 3d 02 bd a3 bc b9 ad b7 bd 8f 82 ef 3c
       0.05974574 -0.019987587 -0.08968682 0.02923706
000180 7f 66 77 bb 82 e3 e4 bb b7 07 b8 3d d5 09 60 3c
       -0.0037750301 -0.006985129 0.089858465 0.013674219
000190 33 1c 05 bd 20 2a 2f 3c 78 72 19 bd 00 20 82 3c
       -0.032497596 0.010691196 -0.03746268 0.0158844
0001a0 44 fb 45 3d 13 a2 85 bd d6 f6 57 bb 75 bc 36 bc
       0.04833533 -0.06525054 -0.0032953522 -0.01115333
0001b0 23 e9 75 3d b1 58 35 3d 6b e4 f5 3d a1 d0 ef 3c
       0.06003679 0.044274036 0.12006458 0.029274287
0001c0 24 67 c1 bd ce 84 07 3d 7e 01 a8 bc d9 6c 27 3e
       -0.09443501 0.033085637 -0.020508524 0.16350116
0001d0 da 7b 8f bd eb 19 98 3d 79 75 89 3b 7d 10 e8 3c
       -0.07006045 0.074268185 0.004194912 0.028328175
0001e0 2e 4f 49 bd 35 92 67 bd 7b f0 cb bd 85 c4 6a 3d
       -0.049147777 -0.05653592 -0.099579774 0.057316322
0001f0 ad d1 30 bd c1 2c fc 3b ec 97 e5 bd 8b ed 94 3c
       -0.043168712 0.007695765 -0.112106174 0.018179676
000200 f0 68 c9 bc 2c b5 a6 3b dd 31 23 bd a8 7a fe bd
       -0.02458617 0.0050875153 -0.039842475 -0.124257386
000210 38 57 60 bd 6a c9 af 3d a2 a6 19 3d 22 47 cb 3d
       -0.05477068 0.085833386 0.03751243 0.09925677
000220 0a 5e 0a 3d fb 52 26 bd df 87 55 bd f0 46 55 bd
       0.03378109 -0.04060648 -0.05213153 -0.052069604
000230 60 f9 14 3d d7 26 cb bd 6c 97 14 be 33 6c 23 3d
       0.036370635 -0.099195175 -0.14510888 0.03989811
000240 08 41 05 be 72 c7 03 bb 98 76 c0 bc 63 16 98 3d
       -0.13013089 -0.0020107892 -0.02349405 0.07426145
000250 65 6e 94 bd e8 28 2d 3d c8 19 6f 3c ac 65 85 3d
       -0.072476186 0.04227534 0.014593549 0.06513533
000260 a8 54 c3 3b c6 08 d5 3c af 0c e0 3d cb 09 86 3b
       0.0059610195 0.02600516 0.10939919 0.004090523
000270 da 70 64 3c 8b d3 53 bc c1 30 9f 3c ff b8 82 bc
       0.0139429215 -0.012928854 0.019432427 -0.015957354
000280 19 4f 08 3c 05 57 b1 3d 77 e8 c7 bd 88 f8 cb bc
       0.00831964 0.08659176 -0.09761136 -0.024898782
000290 31 e9 f2 bc e8 f1 82 3d 10 40 af 3d e7 9b 96 bd
       -0.02965221 0.06393796 0.08557141 -0.07353955
0002a0 38 61 2c 3d c7 2a 6c 3c 63 d6 23 3d d0 95 b2 3d
       0.042084903 0.014414496 0.039999377 0.08719981
0002b0 ec 83 ec 3d 1c 98 15 3e 5a 35 07 bb 71 0b ce bc
       0.115485996 0.14608806 -0.0020631165 -0.02515194
0002c0 10 23 90 3c 55 c3 d7 3d aa fa 7f 3d 8c c3 5d 3d
       0.017594844 0.105353035 0.06249491 0.054141566
0002d0 f0 1c 58 bd 3c 77 02 3d a7 cf a7 bd f6 91 19 b9
       -0.052761972 0.031851992 -0.081939034 -0.00014645592
0002e0 18 16 88 3d 4d 2e 96 3d ac 3d 3d 3d 56 45 cd 3c
       0.06644839 0.0733305 0.046201393 0.025057476
0002f0 80 41 1c 3b 09 9b b4 bc 7a 88 1d 3c 20 cc 90 bd
       0.0023842752 -0.022046583 0.009615058 -0.07070184
000300 40 dc 82 bd 69 35 8c bd 28 ef e8 3c 80 dd 02 3e
       -0.063896656 -0.06846125 0.028434351 0.12779808
000310 eb d2 24 3c 97 46 2a 3b d9 58 bc bd d1 05 7d bd
       0.010060052 0.0025982016 -0.09196634 -0.061773125
000320 6a 57 b0 3d d2 93 9e bd 17 3a 3a 3d 59 5b 7e bd
       0.08610423 -0.07743038 0.045465555 -0.062098835
000330 1d 70 80 bd 62 0d 4c 3d 9f 69 94 3d 85 7c 86 bd
       -0.06271384 0.04981745 0.07246708 -0.06566719
000340 4f 2a 38 bd 9a 3f d9 3d 89 6d ce 3c 95 6a 44 bc
       -0.044962224 0.10607834 0.025198715 -0.011988302
000350 0d 58 b1 3c 37 9f b7 bc 80 fc 16 bc 7d 87 14 3d
       0.021648431 -0.022414787 -0.009215474 0.036262024
000360 28 c5 97 3d 54 d2 49 3c e9 ab f2 bc 79 84 5f 3d
       0.074106514 0.012318213 -0.029622989 0.054569695
000370 6e da ac bd 49 e6 c2 3c 68 bb 00 bc 19 6c 75 3d
       -0.084401 0.02379145 -0.007857181 0.059917543
000380 cf cd 87 3d 58 1f 3a bc 91 0d b7 bb 6d f1 11 3e
       0.06631052 -0.011360012 -0.005586334 0.14252253
000390 29 5b 42 bd 6f 4b 49 bb 99 af b2 3d 9f 42 c2 bd
       -0.04745022 -0.0030715128 0.08724899 -0.09485363
0003a0 46 c2 bd 3d 3a 55 e6 3c 49 2c c7 3c ce 6f 80 bd
       0.0926557 0.028116811 0.024313109 -0.06271325
0003b0 0b 6b 19 3b 79 ff ad bd 61 bf 05 bd 8b ca 49 bd
       0.002340975 -0.08495993 -0.032653216 -0.049265426
0003c0 29 58 58 3d 40 12 4c 3b 09 99 07 3c 93 02 45 be
       0.05281845 0.0031138808 0.0082762325 -0.19239263
0003d0 3b 77 65 bc b1 e6 b4 bd 58 3b bd 3c 8c f4 88 bc
       -0.014005478 -0.088330634 0.023099586 -0.016718172
0003e0 99 ae 2a bd 43 64 07 bd 5b 9c ca bd 57 5b 39 be
       -0.041670416 -0.0330546 -0.09893104 -0.1810125
0003f0 0a ae 00 3c 23 cd 92 bc a2 b8 42 3d 20 12 af bc
       0.007853994 -0.017920082 0.04753936 -0.021370947

network_body._body_endoder.seq_layers.4.bias f4 [300]
000000 e7 e7 33 bb 81 27 4b 3a b5 1b 84 37 d4 95 e6 b9
       -0.0027451457 0.0007749722 1.5748528e-05 -0.0004398065
000010 9e 20 53 2d 2e 4b 02 bb 5c 07 19 bb e5 ea 85 b9
       1.2001204e-11 -0.0019881236 -0.0023350334 -0.00025542747
000020 09 2c 45 bb f9 5a 83 bb 48 0e 94 bb a3 5d 62 ba
       -0.0030086061 -0.0040086475 -0.004518304 -0.0008635169
000030 86 4b ae 39 52 34 bc 39 c2 13 f8 b9 9b f4 26 b2
       0.00033244136 0.00035897136 -0.00047316967 -9.718089e-09
000040 34 37 f9 ba f1 d7 1b b8 92 03 f4 37 54 a2 ed ba
       -0.0019013644 -3.715599e-05 2.908873e-05 -0.0018130043
000050 3e dd 88 3b be ec db ba 60 81 d0 ba fc a9 70 bb
       0.0041767647 -0.0016778929 -0.0015907697 -0.0036722412
000060 48 fa ef 39 84 ff 74 ba a0 f5 94 2f 86 db 8a ba
       0.00045772106 -0.0009345936 2.709557e-10 -0.0010593988
000070 11 55 1f 3a 84 90 80 39 03 41 96 b8 e0 2c 1e bb
       0.00060780445 0.00024521735 -7.164667e-05 -0.0024135634
000080 d2 9e 86 ba 7a f5 1f 3b 3a 20 a0 ba 99 04 1f 39
       -0.0010270721 0.002440779 -0.0012216636 0.00015165134
000090 54 bd 4f ba df 6c 96 af b6 0d a1 ba be 29 81 3a
       -0.00079246354 -2.73622e-10 -0.0012287411 0.0009854359
0000a0 42 be eb 38 c3 7d b6 38 6a 5f 84 3a 6b 64 8a 3a
       0.000112411115 8.701861e-05 0.0010099236 0.0010558491
0000b0 cc a0 3f ba 1a cf ff ba 0f 6e 6a 3a 18 9b 6d bb
       -0.00073100324 -0.0019516677 0.00089427916 -0.0036255773
0000c0 c6 48 74 bb 07 8b 7d ba f8 10 60 bb 47 d9 29 ba
       -0.0037274822 -0.0009671901 -0.0034189802 -0.0006479215
0000d0 45 f6 c7 ba 20 55 50 bb 5f 2d 59 bb 1e 2f 49 bb
       -0.0015255889 -0.003178902 -0.0033138616 -0.003069825
0000e0 c3 b7 e6 ba 97 18 ac 3a 0a 99 2a a0 42 d8 5d ba
       -0.0017602373 0.0013129887 -1.4450196e-19 -0.0008462706
0000f0 ca 9e 72 bb e0 29 7d 3a 93 e5 8f b9 01 b7 63 bb
       -0.0037020915 0.0009657424 -0.00027446132 -0.003474653
000100 f2 33 aa 3a d4 23 08 bb 0a 54 fe b9 6b 55 f1 ba
       0.0012985452 -0.0020773308 -0.0004850927 -0.0018412297
000110 44 3b 92 bb d9 d9 82 3a cf 95 2b ad a2 04 b6 38
       -0.0044626314 0.0009983137 -9.753489e-12 8.679299e-05
000120 89 14 0d bb d0 2d aa ba b0 2c 2f 3a 75 3e f9 ba
       -0.0021527132 -0.0012983624 0.0006682379 -0.0019015806
000130 01 9b 80 bb d4 16 1d b9 11 b1 77 37 3d 77 65 ba
       -0.003924728 -0.00014981191 1.4763574e-05 -0.00087534246
000140 5b 01 5d ba ae a6 fe 38 ae 70 27 bb 18 17 55 ba
       -0.0008430683 0.0001214271 -0.002554934 -0.00081287464
000150 8e 16 40 b9 2d a8 db ba 7a 4e aa ba ef 98 4c bb
       -0.00018318949 -0.0016758494 -0.0012993359 -0.0031219085
000160 58 76 62 3b c6 96 00 bb ec 5e 52 bb 79 ca 49 3a
       0.0034555402 -0.0019621118 -0.0032100035 0.0007697712
000170 06 22 8c bb 77 7d 1f bb ef de c8 3a b6 03 0c ba
       -0.004276517 -0.0024336257 0.0015325228 -0.0005341129
000180 7c 32 40 bb 12 e9 32 3a f5 55 32 bb b2 d9 1c bb
       -0.0029326966 0.00068248913 -0.002721188 -0.0023933467
000190 27 a4 63 ba 07 84 f5 ba 44 c1 e8 ba d9 36 63 bb
       -0.00086838234 -0.0018731364 -0.0017757793 -0.0034670143
0001a0 df e6 75 ba 5b 96 9f bb 78 a3 01 3a b1 b3 d7 b9
       -0.0009380411 -0.0048702187 0.0004945318 -0.00041141876
0001b0 cd 6d 06 ba 26 48 bc 0a de f3 8b 39 d1 b0 88 bb
       -0.0005128056 1.813088e-32 0.0002669384 -0.004171469
0001c0 2c 46 65 b9 99 09 60 ba 1a 6f e9 3a 5c a0 08 bb
       -0.00021865283 -0.0008546352 0.00178096 -0.0020847535
0001d0 e0 7c 7b bb 43 f9 3e b9 45 b8 21 bb 92 94 5c b9
       -0.0038373992 -0.00018212669 -0.0024676484 -0.00021036182
0001e0 e9 b7 ca b9 fe 2d 9d ba f2 19 6f bb b3 c8 4c 3b
       -0.00038665466 -0.0011991856 -0.003648397 0.0031247556
0001f0 26 ee 0b 3b 74 3d d4 ba 9b 13 c8 ba 58 22 4b 3a
       0.0021351664 -0.0016192631 -0.0015264632 0.0007748953
000200 29 83 e1 97 33 8b 01 bb cd 30 72 bb 9d 59 62 b9
       -1.4573394e-24 -0.0019766807 -0.0036955357 -0.00021586423
000210 32 fe 83 bb a4 8c 42 bb 00 00 00 00 cb 0b 06 ba
       -0.004028105 -0.002968588 0.0 -0.00051134516
000220 e6 80 09 bb ca 07 45 ba e3 f6 9a ba d9 59 b5 ba
       -0.002098137 -0.0007516114 -0.0011822846 -0.0013835981
000230 40 38 fb ba a1 e5 25 bb b1 82 01 bb 56 c9 1f ba
       -0.0019166544 -0.0025313871 -0.0019761736 -0.000609537
000240 0c 74 3f b9 fe 29 16 ba c0 74 b2 ba 3d 39 8a 39
       -0.0001825841 -0.0005728303 -0.0013615116 0.00026364057
000250 28 37 33 bb e1 c6 cb ba d6 07 76 ba 8a 52 20 3a
       -0.0027346108 -0.0015546941 -0.0009385323 0.0006115815
000260 45 cd ff ba f5 59 b8 b9 41 fa de ba da ba f1 3a
       -0.0019516131 -0.00035162238 -0.0017011837 0.0018442527
000270 e6 a2 3b bb 98 a9 94 b9 03 87 b9 ba da 79 6a 3a
       -0.002863103 -0.00028355117 -0.0014154617 0.0008944549
000280 1d 16 57 bb f8 b0 85 ba 3c c8 20 bb be f8 1c bb
       -0.0032819577 -0.0010199836 -0.0024533411 -0.0023951973
000290 61 36 5c bb ff fb 25 39 95 1a bf b8 ba fd 86 3a
       -0.0033601748 0.00015829502 -9.112541e-05 0.0010299005
0002a0 81 2d 44 bb 6d 12 ca 39 5d fb d8 b7 dd f5 ad 17
       -0.002993435 0.0003854217 -2.5866257e-05 1.1241928e-24
0002b0 ae c1 ad 37 2c 83 4d ba 09 f4 ce 3a 76 ea 85 3a
       2.0713396e-05 -0.00078396755 0.0015789281 0.001021697
0002c0 31 43 2e 3a 62 ff 3d 33 be 64 49 bb 5d 20 e5 39
       0.00066475855 4.423726e-08 -0.0030730213 0.00043702396
0002d0 5e be 17 b8 22 ac c3 3a f4 90 01 ba b5 3d ef 3a
       -3.61785e-05 0.0014928619 -0.0004942559 0.0018252643
0002e0 fc 9f 16 ba 0b 49 1d b9 72 54 fe 3a b9 7e 2e bb
       -0.00057458854 -0.00014999897 0.0019403829 -0.0026625826
0002f0 33 c6 29 3b a4 05 31 b9 34 34 6d ba ec ec e8 38
       0.002590549 -0.00016882137 -0.00090486114 0.00011106752
000300 a4 f5 0f bb 88 4b 32 bb 54 a0 2e bb 6f 52 e1 ba
       -0.0021966482 -0.0027205665 -0.0026645856 -0.0017190705
000310 55 6c b4 3a 01 2b 07 3a 05 26 c5 ba 70 9c e4 3a
       0.0013765196 0.00051562494 -0.0015041238 0.0017441642
000320 bb 47 b3 b7 0b be 4e ba ef 33 a4 ba 56 d8 2f ba
       -2.1371865e-05 -0.0007886595 -0.0012527684 -0.0006707957
000330 01 9f 72 bb 11 20 30 bb 89 8c 6c b8 12 07 07 bb
       -0.0037021043 -0.0026874582 -5.639767e-05 -0.002060358
000340 13 cf 24 bb 14 7d 61 b9 ca 77 2e 3a 9b 34 03 38
       -0.002514784 -0.00021504267 0.0006655423 3.1281827e-05
000350 99 78 ff ba be 2d 2f bb b0 a8 26 b8 ee 3c cd 3a
       -0.0019490897 -0.0026730145 -3.9734587e-05 0.0015658417
000360 21 1a a7 ba 46 42 54 ba f6 a8 a2 ba f2 2f 6a ba
       -0.0012748876 -0.0008097034 -0.0012409973 -0.0008933536
000370 fb 15 35 3a 16 98 b1 39 ee 99 86 ba 00 b2 fc ba
       0.00069078774 0.00033873384 -0.0010269263 -0.0019279122
000380 fa 8f 14 bb f7 77 56 bb 82 d1 19 bb a7 40 0e bb
       -0.0022668825 -0.0032725313 -0.0023470824 -0.0021706016
000390 75 38 f1 28 69 e3 85 b9 a4 dd 40 bb bf 8f 34 bb
       2.678086e-14 -0.0002553717 -0.0029428983 -0.00275515
0003a0 81 f1 25 3b ce 03 1d bb f4 32 1a b9 40 54 1e bb
       0.002532095 -0.0023958567 -0.00014705566 -0.0024159104
0003b0 30 26 9b b9 e1 3e 32 3a 27 6c 47 ba f0 44 4b 3a
       -0.00029592356 0.0006799531 -0.00076073635 0.0007754108
0003c0 d6 ec 03 3b fe 03 88 ba 1b 1f d4 b4 47 22 09 bb
       0.002013018 -0.0010377166 -3.951071e-07 -0.0020924972
0003d0 03 54 9f ba b8 a9 83 3a b1 28 ce ba 9b 27 56 b4
       -0.0012155775 0.0010045087 -0.001572868 -1.9944711e-07
0003e0 d4 48 86 3a 3c 51 c1 3a f6 c2 9e bb bd 90 af ba
       0.0010245093 0.0014748941 -0.0048450185 -0.0013394576
0003f0 d7 d0 8f 3a 52 bb 96 bb 8f 1b 03 bb 47 3f d3 b9
       0.0010972273 -0.004599967 -0.002000544 -0.000402922
