Assets/Models/EvoPlayer-gen5-93999.onnx (onnx, 805802 bytes, 17 tensors)

discrete_act_size_vector f4 [1, 5]
0	0x40400000	3.0
1	0x40a00000	5.0
2	0x40e00000	7.0
3	0x40400000	3.0
4	0x40800000	4.0

network_body._body_endoder.seq_layers.0.weight f4 [300, 34]
0	0x3b165c87	0.0022943334
1	0xbd050b96	-0.032481752
2	0x3e50e1df	0.20398663
3	0x3daf1894	0.0854961
4	0xbe0cc70c	-0.13747805
5	0x3e4a7de3	0.19774584
6	0x3d1feb49	0.039042745
7	0x3d8f3e89	0.069943495
8	0xbe18a6ab	-0.14907329
9	0xbee9a881	-0.4563637
10	0x3e01ca3b	0.12674801
11	0x3c83056e	0.0159938
12	0x3d8a14af	0.06742226
13	0xbe85823e	-0.2607593
14	0x3e315e5c	0.17321151
15	0x3ebd2fdc	0.36950576
16	0x3e104374	0.14088231
17	0xbd75385f	-0.059868213
18	0xbc3619ad	-0.01111452
19	0xbb14f4ab	-0.0022728841
20	0x3e38cf5e	0.18047854
21	0xbef5d62c	-0.48014963
22	0x3dcd43f7	0.10022729
23	0x3d1e1b9e	0.038600557
24	0x3e064a9e	0.13114402
25	0xbe10db25	-0.14146097
26	0x3e5e1061	0.21685936
27	0xbeb631e5	-0.35584942
28	0x3d74be96	0.05975207
29	0x3e89d5ab	0.26920828
30	0xbe190b43	-0.14945702
31	0x3e98d8c8	0.2985289
32	0xbd0fa251	-0.035066906
33	0xbdab3c5b	-0.08361121
34	0xbe29be56	-0.16576514
35	0x3e2d6cca	0.16936031
36	0xbd912cef	-0.070886485
37	0xbe197a9c	-0.14988178
38	0x3cd67f59	0.026183771
39	0xbdf855d7	-0.12125748
40	0x3d79f077	0.06102034
41	0x3d7df5b9	0.062001918
42	0xbd0a36f4	-0.033743814
43	0xbb83c0b3	-0.0040207743
44	0xbea97e5a	-0.3310421
45	0xbd3a5c6b	-0.045498293
46	0xbe2049fa	-0.1565322
47	0x3df1e04c	0.11810359
48	0xbe639ff2	-0.22228983
49	0x3e7acb79	0.24491681
50	0xbe59beb7	-0.21264158
51	0x3e3483e1	0.17628433
52	0x3e34c84c	0.17654532
53	0xbd11ad8e	-0.035565905
54	0x3ed09f87	0.4074671
55	0xbe243bed	-0.16038485
56	0x3deab695	0.11460606
57	0xbe5f5848	-0.2181102
58	0xbe31cb31	-0.17362668
59	0x3ba3b648	0.004996095
60	0x3cf4fc41	0.02990544
61	0xbe123e4b	-0.14281575
62	0xbd9cbe63	-0.07653501
63	0x3c758940	0.014986336
64	0xbd7cfd72	-0.06176514
65	0xbdc1d197	-0.09463804
66	0x3c3b5c02	0.011435511
67	0x3e728e5a	0.23687115
68	0xbe3251a3	-0.17413954
69	0xbda09f4a	-0.07842882
70	0x3dc06a35	0.093952574
71	0xbad1a64d	-0.0015994996
72	0x3e2ae0a9	0.16687264
73	0xbe3cff6d	-0.18456812
74	0xbceec23d	-0.029145354
75	0xbc8c5d61	-0.01713437
76	0x3da95c6f	0.082695834
77	0x3ea2a17e	0.31763834
78	0x3d8dde32	0.06927146
79	0xbda0e7dc	-0.07856724
80	0x3d1b9b9d	0.0379902
81	0x3cef68fc	0.029224865
82	0xbe0ab93e	-0.13547227
83	0x3e2df01e	0.16986129
84	0x3ea9ae9a	0.33141023
85	0xbe93eea5	-0.2889301
86	0xbde2e136	-0.11078112
87	0xbdcee773	-0.10102739
88	0x3ead9c2b	0.3390821
89	0xbc928c60	-0.017889202
90	0xbc81f8c1	-0.015865685
91	0x3b4b16a3	0.0030988834
92	0x3cc85885	0.024456272
93	0xbc0066e2	-0.007837029
94	0xbe80b2f0	-0.25136518
95	0xbdaeec48	-0.08541161
96	0xbe481960	-0.1954093
97	0xbdc8acdc	-0.09798595
98	0xbe73926a	-0.23786321
99	0x3cc6b60b	0.024256727
100	0x3d044211	0.03228957
101	0xbe37e6b0	-0.17959094
102	0x3e206c3c	0.15666288
103	0x3e8ea21b	0.27858052
104	0x3d2ecc6e	0.042675428
105	0x3e2cea08	0.16886151
106	0xbddcf576	-0.107890055
107	0x3ca739ce	0.020413306
108	0xbe0983a4	-0.13429123
109	0x3df0ecbe	0.11763905
110	0xbd80114a	-0.062532976
111	0xbd8cb0f3	-0.06869688
112	0xbe2865f0	-0.16445136
113	0xbc76178f	-0.015020265
114	0xbe4ead98	-0.20183408
115	0x3c59e019	0.013298058
116	0xbde3e0cc	-0.11126861
117	0xbe6ae005	-0.22937019
118	0x3d949560	0.072550535
119	0xbe81ba06	-0.25337237
120	0xbe8e2fb2	-0.27770764
121	0xbe5c90bd	-0.21539588
122	0x3e3ec8e7	0.18631326
123	0x3e554383	0.20826535
124	0xbdfad7c4	-0.12248185
125	0xbd89d705	-0.06730465
126	0x3ef71883	0.48260888
127	0xbcd5851c	-0.026064448
128	0x3c9d8861	0.01923007
129	0xbe55e73b	-0.20888989
130	0x3cd3935d	0.025827104
131	0x3d950023	0.07275417
132	0xbced65f0	-0.028979272
133	0xbdd76951	-0.105181344
134	0x3d6ad7e5	0.0573348
135	0x3e86bd12	0.26316124
136	0xbe816709	-0.25273922
137	0x3c7df729	0.015500822
138	0x3df8104c	0.121124834
139	0xbe366284	-0.17811018
140	0xbcc49fe8	-0.02400203
141	0xbe8a7bb8	-0.27047515
142	0xbe060b95	-0.13090356
143	0xbec84431	-0.39114526
144	0x3e065d5c	0.13121551
145	0x3e0dde49	0.13854326
146	0xbe893eaa	-0.2680562
147	0xbe4e3974	-0.20139104
148	0x3e0a6e4d	0.13518639
149	0xbb7717a8	-0.003770331
150	0x3e699d35	0.22813876
151	0x3d018242	0.031618364
152	0xbeca820b	-0.3955234
153	0x3edfc4a9	0.43704727
154	0xbea0daff	-0.3141708
155	0xbe4c7dd6	-0.19969878
156	0xbdbd4853	-0.092423104
157	0xbdd64d07	-0.104639105
158	0x3e13c036	0.14428791
159	0xbea99d21	-0.33127692
160	0xbdfd9f07	-0.12383848
161	0xbd3518aa	-0.044212975
162	0x3e9023a7	0.281522
163	0x3e5ad818	0.21371496
164	0xbdcefebd	-0.10107181
165	0xbe2395d5	-0.15975125
166	0x3d9fd5b1	0.0780443
167	0x3d572ff2	0.05253596
168	0xbe0bf573	-0.1366785
169	0x3da807be	0.08204602
170	0x3d2b847f	0.041874405
171	0xbe1bfb8f	-0.1523268
172	0x3e35e866	0.17764434
173	0x3e325a26	0.17417201
174	0x3d3d81fc	0.04626654
175	0x3dedf337	0.11618655
176	0xbd1574c0	-0.036488295
177	0xbe6c86db	-0.23098318
178	0x3eb93b68	0.36178136
179	0x3d6b4a63	0.057443988
180	0xbee54a7b	-0.44783387
181	0xbe737651	-0.23775603
182	0xbde09b4b	-0.1096712
183	0xbe012fad	-0.12615843
184	0xbe10cd06	-0.1414071
185	0x3d938d39	0.072046705
186	0xbca475e4	-0.020075746
187	0xbd305351	-0.043048207
188	0x3e91a472	0.28445774
189	0xbc8c31c5	-0.017113576
190	0xbc0c0159	-0.008545243
191	0xbe6a4275	-0.22876914
192	0x3dfc0946	0.12306456
193	0x3db6e5d7	0.08930557
194	0x3baa1737	0.0051907557
195	0xbe2e8962	-0.17044595
196	0xbd5a20ae	-0.053253822
197	0xbda606b5	-0.08106748
198	0xbe7a93aa	-0.24470392
199	0x3e3ff9b1	0.18747593
200	0xbe901509	-0.2814105
201	0xbd0e3c0b	-0.03472523
202	0x3e07056d	0.13185664
203	0x3e22d569	0.15901722
204	0x3e8fb489	0.28067425
205	0x3cb9f0fa	0.022697914
206	0x3d87b2cf	0.06625902
207	0xbdc624b5	-0.0967497
208	0x3d51719f	0.05113375
209	0xbe3ab4d6	-0.18233046
210	0x3ef11c63	0.4709197
211	0xbe5d080b	-0.215851
212	0xbc9e51fe	-0.019326206
213	0x3d9fadc5	0.07796816
214	0x3d9e4b09	0.077291556
215	0xbe18cc68	-0.14921725
216	0x3cd053ce	0.025430586
217	0x3a1cca09	0.00059810333
218	0x3e43a6e0	0.19106627
219	0x3e3fbef8	0.18725193
220	0xbeb3c083	-0.35107812
221	0x3e00a700	0.12563705
222	0x3dfc655e	0.12324022
223	0x3e364886	0.17801103
224	0x3e1cf152	0.15326431
225	0xbd817300	-0.06320763
226	0x3dfa5c9a	0.122246936
227	0x3ca4481c	0.020053916
228	0xbd00588b	-0.03133444
229	0xbda9f13c	-0.08297965
230	0xbe467fa6	-0.19384632
231	0x3c36734e	0.011135889
232	0x3dfd36b0	0.123639464
233	0xbe4d1c93	-0.20030431
234	0xbc59ba56	-0.013289055
235	0xbe57f425	-0.21089227
236	0xbe68e837	-0.22744833
237	0xbe23e5f3	-0.16005687
238	0xbdc61de3	-0.09673669
239	0x3e88b9fe	0.267044
240	0xbd550d2c	-0.052014515
241	0xbea7da6a	-0.32783824
242	0xbce676fc	-0.028132908
243	0xbe99522c	-0.29945505
244	0x3dfe91d2	0.12430157
245	0xbe5831ad	-0.211127
246	0x3e3398c4	0.17538744
247	0x3c5f1518	0.013615869
248	0x3b237927	0.0024944039
249	0x3e31fc0f	0.17381309
250	0x3d1a9c19	0.037746523
251	0x3e8a0676	0.26958054
252	0xbede4a89	-0.4341624
253	0xbec2b160	-0.3802595
254	0x3e8d333e	0.27578157
255	0x3df137d4	0.117782265

network_body._body_endoder.seq_layers.0.bias f4 [300]
0	0x39c0a40d	0.0003674332
1	0xb7d08d77	-2.4861407e-05
2	0x3ba34ac4	0.004983278
3	0x3a004295	0.0004892734
4	0x3a7e847f	0.00097090745
5	0x3a208ade	0.00061242084
6	0x3b646a02	0.0034853225
7	0x3b9465ed	0.004528752
8	0xb9c8b41b	-0.00038281162
9	0xb9bc8b2e	-0.0003596185
10	0xbade00ab	-0.0016937455
11	0x3a83d433	0.0010057747
12	0x399f2fcd	0.00030362458
13	0x37ff48ea	3.0432322e-05
14	0xb9a467d2	-0.0003135787
15	0x395feb37	0.00021354562
16	0x3aac7bb9	0.0013159431
17	0x3a86454b	0.001024404
18	0x39fdd7eb	0.00048416792
19	0xb9233273	-0.00015563685
20	0x39c39a78	0.00037308387
21	0x3a9cdb40	0.0011967197
22	0x3a23db03	0.0006250592
23	0xba70c21b	-0.00091841974
24	0xb9b9530e	-0.0003534783
25	0x3a7cd707	0.00096450787
26	0xbae82a3e	-0.0017712784
27	0xbaa50381	-0.0012589545
28	0x39fb62a5	0.00047947947
29	0x3a8edfeb	0.0010900473
30	0xba04738b	-0.00050526176
31	0x39217bfe	0.00015400347
32	0x38da7732	0.00010417252
33	0x3aee451e	0.0018178558
34	0xba2770d2	-0.0006387356
35	0xb73b4108	-1.116121e-05
36	0xb8589eb9	-5.1646235e-05
37	0xb99b04ae	-0.0002956739
38	0x3a9fa96c	0.0012181229
39	0xba5d8b48	-0.00084512355
40	0xba3761bb	-0.0006995459
41	0x3be6ea6a	0.0070469873
42	0xba9ba315	-0.0011874164
43	0x3b100e1e	0.002198107
44	0xbac6b7e0	-0.0015161
45	0xba447178	-0.0007493715
46	0x2b049d06	4.7113734e-13
47	0x39bcd3b0	0.00036015874
48	0xba71681e	-0.0009208935
49	0x3a205d58	0.0006117425
50	0xbaa461a6	-0.0012541309
51	0xba33bcd2	-0.00068564445
52	0xba116b65	-0.0005547314
53	0xba2395f0	-0.0006240299
54	0x3af6aea3	0.0018820356
55	0x3ab97012	0.001414778
56	0xb9e72f2e	-0.00044094905
57	0xb87c3101	-6.012712e-05
58	0x3a4a5c53	0.0007719446
59	0xba1f434a	-0.00060753955
60	0xba9b4fef	-0.0011849384
61	0x3ae406df	0.0017397067
62	0xbac0fcd4	-0.0014723786
63	0x3a34217e	0.0006871446
64	0x398bf06d	0.00026691277
65	0xb73b73cf	-1.1173032e-05
66	0xb9548680	-0.00020268
67	0x3968a904	0.00022188207
68	0x3895038c	7.105534e-05
69	0xbb1bae4e	-0.0023755017
70	0xb87474a7	-5.8282774e-05
71	0x3a6aff8f	0.0008964473
72	0xbb03b47b	-0.0020096588
73	0x3a0c2113	0.00053455046
74	0x3a54d035	0.00081181835
75	0xbb346784	-0.002752752
76	0x3a2a1249	0.000648771
77	0xba36bea2	-0.00069711555
78	0x3af37631	0.0018574652
79	0x39d6b523	0.00040952218
80	0xbaf39ede	-0.0018586775
81	0xba291d6e	-0.0006451224
82	0x3a02a521	0.00049837126
83	0xbaa29b0d	-0.0012405828
84	0xba3ab395	-0.0007122097
85	0xba8ee8bc	-0.00109031
86	0xbb2a6b03	-0.0026003725
87	0x3af18f48	0.0018429542
88	0xb8a276af	-7.7468685e-05
89	0xbb61f308	-0.0034477133
90	0x39c6d360	0.0003792299
91	0x3aa17d10	0.0012320597
92	0xbaef69e0	-0.0018265806
93	0x3addcc0d	0.0016921774
94	0x3a50cf7a	0.0007965487
95	0x3ac1fa05	0.0014799243
96	0xba7b2abc	-0.0009581258
97	0x3a10d37d	0.0005524678
98	0x396e343d	0.00022716909
99	0x39fc4095	0.00048113303
100	0x3a86fd18	0.0010298816
101	0x38efc366	0.00011432804
102	0x39ecafbb	0.00045144357
103	0xbac9ec34	-0.0015405477
104	0xbafe3e3d	-0.001939721
105	0x3a5e8add	0.000848932
106	0x3a81f7ad	0.0009915732
107	0x39f47a7b	0.00046630562
108	0xb95893e5	-0.0002065446
109	0xba030ff0	-0.0004999628
110	0x39833b2f	0.00025030362
111	0x3b8c6292	0.0042842114
112	0xbacb8d9a	-0.0015529871
113	0xbad14501	-0.0015965999
114	0xb9ed7930	-0.00045294454
115	0x39f1913a	0.00046075304
116	0xb938acc3	-0.00017611966
117	0x3931db72	0.00016961785
118	0x39e40f1a	0.000434988
119	0x39157ab2	0.00014255455
120	0xbaa64219	-0.0012684494
121	0x3b2c82cf	0.0026323085
122	0x3a28584c	0.00064218487
123	0x39f9b983	0.00047631198
124	0x39b0e3d1	0.00033739072
125	0x394b53de	0.00019390832
126	0x39405584	0.00018342404
127	0xba211882	-0.00061453145
128	0x3b4cbda2	0.003124096
129	0x3a524001	0.00080204016
130	0xbb00e38c	-0.0019666879
131	0x3abe28f5	0.0014508056
132	0xba8365bd	-0.0010024827
133	0x3a1b8da3	0.0005933886
134	0x3a46c40e	0.0007582315
135	0x3a2258ad	0.00061930233
136	0xba9df541	-0.0012051241
137	0xbac1d48a	-0.0014788073
138	0x3aa0f669	0.0012280467
139	0x3b14d397	0.0022709125
140	0x3a087fd4	0.0005207036
141	0xb97a49cd	-0.00023869351
142	0xba1e2262	-0.0006032345
143	0x3a51a165	0.0007996767
144	0x3a616019	0.00085973885
145	0xba7a5f6b	-0.00095509615
146	0xba599314	-0.00082998094
147	0xba59d425	-0.0008309505
148	0x3a139c3a	0.00056308846
149	0xbb2aec73	-0.0026080876
150	0xb9fc7c8c	-0.0004815798
151	0xaf3426de	-1.6384713e-10
152	0xba8e7c4f	-0.0010870787
153	0xba1f703d	-0.00060820935
154	0x39bb4054	0.00035715348
155	0xbaea51dd	-0.001787718
156	0xb8ca09de	-9.6339485e-05
157	0xb9f52ddb	-0.00046764206
158	0x3a91ae45	0.0011114558
159	0x2b429b73	6.9138374e-13
160	0x3973caf1	0.00023249887
161	0xbb2b83b9	-0.0026171042
162	0x3b37cf89	0.0028047285
163	0xb93becbc	-0.000179219
164	0x3a660013	0.0008773815
165	0xb9720e15	-0.00023084164
166	0x3917af34	0.0001446575
167	0xb896c12e	-7.18854e-05
168	0xbb2880b6	-0.0025711483
169	0xba86a412	-0.0010272285
170	0x398be20c	0.00026680564
171	0xba15a73d	-0.00057088194
172	0xba76888d	-0.0009404503
173	0x3a120872	0.00055707165
174	0xba42f160	-0.00074364804
175	0xbabdb6b9	-0.0014474011
176	0xb9b198df	-0.0003387397
177	0x3ac145aa	0.0014745493
178	0xb8d38b77	-0.000100872414
179	0xba20797e	-0.00061216194
180	0x3ae4623a	0.0017424293
181	0x3924a24e	0.00015700722
182	0xbb026941	-0.0019899162
183	0x3a84f02a	0.0010142375
184	0xb94abeab	-0.0001933525
185	0xb95b3af3	-0.00020907428
186	0xba4276ec	-0.00074182334
187	0xba504d1f	-0.0007946062
188	0xba161886	-0.00057257
189	0x399e8cdc	0.00030241057
190	0x393e5ca2	0.0001815432
191	0x38b6a93d	8.7099594e-05
192	0x39b5256c	0.00034550892
193	0xb9a610c3	-0.00031674476
194	0xb8f98773	-0.000118984746
195	0xbad198d9	-0.0015990987
196	0x39e75311	0.00044121643
197	0xba72a19e	-0.000925565
198	0x39c5ab61	0.00037702455
199	0x396710a9	0.00022036083
200	0xbae5abf8	-0.0017522564
201	0x3a9ac2e7	0.0011807353
202	0xb86cc4e7	-5.6450164e-05
203	0xbab8a490	-0.0014087129
204	0xb9cf195c	-0.0003950101
205	0xb990d932	-0.00027627643
206	0x39cbafd2	0.00038850174
207	0xbaec8068	-0.0018043639
208	0xba53d9ce	-0.00080814667
209	0x3a4d4be1	0.0007831436
210	0xba03abbf	-0.00050228456
211	0xb84345a5	-4.6556484e-05
212	0xb87a8e87	-5.9737384e-05
213	0x3a6aaf14	0.000895248
214	0x399367fd	0.00028115502
215	0x39dc1789	0.00041979205
216	0xb98ccd0b	-0.0002685565
217	0x3a8a54e9	0.001055387
218	0xba63f22c	-0.0008695449
219	0xbb8b0102	-0.0042420635
220	0x14ec198c	2.3839987e-26
221	0xba270765	-0.00063716463
222	0x3a8b4308	0.0010624835
223	0xba473cdb	-0.0007600316
224	0x3a33fac8	0.00068656774
225	0x3a032543	0.0005002806
226	0xbaf77922	-0.0018880705
227	0x3a5939cf	0.0008286507
228	0x395cd59b	0.00021060409
229	0xb9e16739	-0.0004299225
230	0xb92171e1	-0.0001539658
231	0xba54087a	-0.00080884213
232	0x3475c97c	2.2890703e-07
233	0xb883236d	-6.253165e-05
234	0xbb267bf7	-0.0025403479
235	0xba6d0df2	-0.00090429105
236	0xba0ca2d7	-0.0005364841
237	0xbacd853c	-0.0015679966
238	0x3a952b40	0.0011380687
239	0xba8dcd70	-0.0010818671
240	0xbb1ffd9c	-0.0024412638
241	0xba883893	-0.0010392837
242	0xbb2dda79	-0.0026527925
243	0xba96e6b2	-0.0011512844
244	0x00000000	0.0
245	0xba1fd326	-0.0006096832
246	0xba59a78e	-0.00083028607
247	0x397c0577	0.00024034629
248	0x3a3c5acc	0.00071851606
249	0x39df999c	0.00042648322
250	0x3a3991c5	0.00070789113
251	0x3a5f877a	0.00085269625
252	0x396049b8	0.00021389767
253	0x3a2fb605	0.0006702843
254	0x39b16a56	0.00033839297
255	0xba4c1e23	-0.0007786473

network_body._body_endoder.seq_layers.2.weight f4 [300, 300]
0	0xbd402edf	-0.0469197
1	0x3d849d67	0.064753346
2	0xbd1a4d62	-0.037671454
3	0xbd085d6e	-0.033292226
4	0x3cc76ef8	0.024344906
5	0xbb0a0d76	-0.0021065152
6	0x3e052322	0.13001683
7	0x3d4ea960	0.050454497
8	0xbd3f955d	-0.046773303
9	0x3cfd8b8d	0.030950332
10	0x3dd4f6a1	0.10398603
11	0x3c51ce86	0.012805587
12	0x3e074e6f	0.13213514
13	0xbb759a1c	-0.003747589
14	0x3ce31085	0.027717838
15	0xbd86a455	-0.065743126
16	0xbdc7ba76	-0.097523615
17	0xbc61b2f4	-0.013775576
18	0xbca5f3bd	-0.020257825
19	0x3d15cb8e	0.036571078
20	0x3cdee252	0.027207527
21	0xbcafcb9b	-0.021459391
22	0xbdc112ea	-0.09427436
23	0x3de2bd6b	0.11071285
24	0xbc291d77	-0.010321966
25	0x3d8e19f8	0.06938547
26	0x3d0de346	0.034640573
27	0xbd397bbb	-0.045284014
28	0xbcb1146e	-0.021616187
29	0x3cff849f	0.031191168
30	0x3da42c69	0.08016283
31	0x3d867106	0.06564526
32	0x3bfa1479	0.007631835
33	0xbbfafcfe	-0.0076595536
34	0x3cafe9d1	0.021473797
35	0x3c9c1f90	0.019058019
36	0x3be02d17	0.0068413126
37	0x3d6e9a98	0.0582529
38	0x3cefb199	0.02925949
39	0xbcb04c94	-0.02152089
40	0xbcbf436c	-0.023347579
41	0x3cd042be	0.02542245
42	0xbdad54a7	-0.08463412
43	0x3ddb2478	0.10700315
44	0x3c96f585	0.01842762
45	0xbd01c65e	-0.03168332
46	0x3ba0517c	0.004892526
47	0xbd0c1fb2	-0.034209915
48	0x3bd52d22	0.0065056244
49	0xbc6a3cf9	-0.014296764
50	0x3cbddfbc	0.023177974
51	0xbb46539a	-0.0030262233
52	0x3ce060bc	0.027389877
53	0x3c2519c3	0.010076943
54	0x3d04b239	0.03239653
55	0xbdb0fde2	-0.08642174
56	0x3da29a23	0.079395555
57	0xbd38f02b	-0.045150917
58	0x3e040546	0.12892637
59	0xbc1c18ce	-0.009527398
60	0x3dab9199	0.0837738
61	0x3d6444b4	0.055729583
62	0xbd0517c4	-0.032493368
63	0xbdd1b244	-0.102390796
64	0xbc71513c	-0.01472884
65	0xbd654dc8	-0.05598238
66	0xbb41faf8	-0.0029599052
67	0xbd742691	-0.059607092
68	0x3da7ff86	0.08203034
69	0x3cf62e4d	0.030051375
70	0xbcf7c08a	-0.030243177
71	0xbc9b641c	-0.018968634
72	0xbd1b9b16	-0.0379897
73	0x3d9a3660	0.075299025
74	0x3d00fc9c	0.031490907
75	0xbd4a418e	-0.049378924
76	0xbc4ade53	-0.012382108
77	0x3c990a91	0.018681796
78	0x3d458c60	0.048229575
79	0xbb886700	-0.004162669
80	0x3d10b62b	0.03532998
81	0xbd45cdd2	-0.04829199
82	0x3c673007	0.014110572
83	0xbc9c4b93	-0.019079005
84	0x3d844b43	0.064596675
85	0x3d4de59d	0.050267804
86	0xbd77a69a	-0.060461618
87	0xbd497c2c	-0.049190685
88	0xbda9d48f	-0.082924955
89	0x3dc02656	0.09382312
90	0xbd1ff28f	-0.03904968
91	0x3c84b741	0.016200664
92	0xbda68634	-0.08131066
93	0x3d4c14bb	0.049824458
94	0xba491307	-0.0007670377
95	0xbc9e6029	-0.019332962
96	0xbd0d31a4	-0.03447117
97	0xbc5623a9	-0.0130700255
98	0xbd4a145d	-0.049335826
99	0x3d547b62	0.05187548
100	0x3cf76ebf	0.030204175
101	0x3ab9bba0	0.0014170296
102	0xbda5c919	-0.08094997
103	0x3d070125	0.032960076
104	0x3cc06c3d	0.023489112
105	0x3cde023c	0.027100675
106	0x3d46e3fb	0.048557263
107	0xbe08ed81	-0.1337185
108	0xbdd3ec3d	-0.10347793
109	0x3dc5643c	0.09638259
110	0x3b188400	0.0023272038
111	0x3cb259b8	0.021771297
112	0x3dc4d041	0.09610034
113	0xbd39c15d	-0.04535042
114	0x3d11f711	0.03563601
115	0x3e0d980a	0.1382753
116	0xbc1bf74a	-0.0095194075
117	0x3d43a524	0.047764912
118	0xbd141367	-0.036151316
119	0xbb0add86	-0.0021189167
120	0xbce35e7a	-0.02775501
121	0xbd0df41c	-0.03465663
122	0xbc36fd88	-0.011168845
123	0xbc8b0107	-0.016968263
124	0x3d9293e0	0.07157111
125	0xbc0aaa26	-0.008463418
126	0x3cfa5fba	0.030563224
127	0x3d00ee51	0.031477276
128	0xbd6b2401	-0.057407383
129	0xbc3e50dd	-0.011615959
130	0x3c95b93c	0.018276803
131	0xbd445886	-0.047935985
132	0x3bfd6e52	0.0077340985
133	0x3d3a9c4a	0.045559205
134	0xbc15dd00	-0.009146929
135	0xbc4cfaf7	-0.012511007
136	0x3d32caae	0.04365032
137	0x3df169b2	0.11787738
138	0x3c99252b	0.01869448
139	0xbd94a0b2	-0.07257213
140	0xbd531c46	-0.051540636
141	0x3d111d31	0.03542823
142	0xbcee62f9	-0.029099928
143	0x3db90bca	0.09035452
144	0x3cdabd52	0.026701603
145	0xbcf2bca7	-0.029630972
146	0xbbce633b	-0.0062984503
147	0x3c0a9c3d	0.008460102
148	0x3a528c22	0.00080317457
149	0xbd9fc90f	-0.07802021
150	0xbbb468f0	-0.0055056736
151	0x3c77aaeb	0.015116434
152	0xbc505c01	-0.012717248
153	0xbb3a7596	-0.0028451434
154	0xbc009c76	-0.007849803
155	0x3bb2015a	0.00543229
156	0x3c035a01	0.008017064
157	0x3b834d1b	0.0040069944
158	0xba201ef2	-0.0006108127
159	0xbd9c114a	-0.07620485
160	0x3d292563	0.04129542
161	0xbd4991f1	-0.049211446
162	0x3d787af5	0.060664136
163	0xbc9d872f	-0.0192295
164	0xbd45f4bb	-0.048329096
165	0x3da608d8	0.081071556
166	0xbdf0095b	-0.117205344
167	0xbca316e8	-0.019908383
168	0x3c44d78f	0.012014284
169	0xbd161759	-0.03664336
170	0x3d01f0ef	0.031723913
171	0xbd413abb	-0.04717515
172	0xbd4b7d79	-0.049680207
173	0xbd9ae361	-0.075629
174	0xbcb5d089	-0.022194164
175	0xbbcdca31	-0.0062802066
176	0xbb009505	-0.0019620073
177	0xbd2dd4d3	-0.042439293
178	0x3d36d887	0.04464009
179	0x3bdd8b9f	0.006761029
180	0xbd18bdc8	-0.037290365
181	0xbca094be	-0.019602176
182	0xbdcad0ed	-0.09903131
183	0xbd15ee47	-0.036604192
184	0x3d73db92	0.05953557
185	0xbdb1db6e	-0.08684431
186	0xbc7ee1e1	-0.015556783
187	0xbccc42bb	-0.024934163
188	0xbd82e936	-0.06392138
189	0x3d2e3407	0.042530086
190	0x3d04d200	0.032426834
191	0x3caf230d	0.021379018
192	0xbe174bab	-0.14774959
193	0xbc697614	-0.014249343
194	0x3d7c8061	0.06164587
195	0x3db060e2	0.08612229
196	0x3d6d1e8e	0.057890467
197	0xbaf45281	-0.0018640311
198	0x3affdffd	0.001952171
199	0x3ca82ba9	0.020528631
200	0xbb694c04	-0.0035598287
201	0x3cd03830	0.025417417
202	0xbd19caf8	-0.03754708
203	0xbccb1323	-0.024789399
204	0xbd17dee9	-0.037077818
205	0xbb21cd5e	-0.0024689059
206	0xbd47e299	-0.048800085
207	0xbb7b04ac	-0.0038302345
208	0xbd862def	-0.0655173
209	0xbb3bce60	-0.0028656945
210	0x3de5556d	0.11197934
211	0xba107313	-0.00055103115
212	0xbd141b7c	-0.036159024
213	0xbc3614eb	-0.011113386
214	0x3db16003	0.08660891
215	0xbdaa694a	-0.083208635
216	0xbd2ed907	-0.042687442
217	0xbbca9f66	-0.0061835526
218	0xbd8034d6	-0.06260078
219	0x3d7d5c48	0.061855584
220	0x3c90da37	0.017682178
221	0xbe1c54e4	-0.15266758
222	0xbd40afa3	-0.0470425
223	0xbc807d43	-0.01568473
224	0xbd1c15fd	-0.038106907
225	0x3df0a85f	0.11750864
226	0x3ca21079	0.019783245
227	0xbce96fc5	-0.028495679
228	0xbc8dc3f8	-0.01730536
229	0x3d7e3566	0.062062643
230	0x3da478c4	0.08030847
231	0x3da4b626	0.080425546
232	0x3b48722a	0.0030585625
233	0xbd2353df	-0.039874908
234	0xbbc7bcae	-0.0060954904
235	0x3c4d074b	0.012513946
236	0xbda6b55a	-0.08140059
237	0x3d8eff0e	0.069822416
238	0xbd8dc750	-0.069227815
239	0xbd8e7b6e	-0.06957136
240	0xbab45fb9	-0.0013761438
241	0xbcbbc465	-0.022920797
242	0x3c2d2fd5	0.010570486
243	0x3c26d4d6	0.01018258
244	0x3c6f0849	0.014589378
245	0x3d6511e7	0.055925276
246	0x3d7ca7b4	0.06168337
247	0xbdae62b2	-0.085149184
248	0xbd43e06c	-0.047821447
249	0x3d3b78ce	0.045769505
250	0xbde3efe7	-0.11129742
251	0xbdc01077	-0.093781404
252	0xbb5815d9	-0.0032972007
253	0x3d3c6fe0	0.04600513
254	0x3d9e00f5	0.07715026
255	0x3ddff24c	0.10934886

network_body._body_endoder.seq_layers.2.bias f4 [300]
0	0xba86cd3c	-0.0010284553
1	0x39ea0943	0.00044638859
2	0x3a242734	0.0006261945
3	0x39a2f8c2	0.00031084387
4	0x3694cbef	4.4344847e-06
5	0x3a6159a0	0.0008596424
6	0xbaa71c74	-0.0012749569
7	0xb9c4f417	-0.00037565894
8	0x3acfaa90	0.0015843678
9	0xb9c54222	-0.0003762404
10	0x39d28340	0.0004015211
11	0xb99041bb	-0.00027514793
12	0xba245ba6	-0.000626976
13	0x3b846417	0.004040252
14	0x38e06e4b	0.00010701696
15	0x39858b3b	0.00025471472
16	0x3b896323	0.004192726
17	0xba8eafb4	-0.0010886104
18	0x3b4913f1	0.0030682052
19	0x98b993e1	-4.79707e-24
20	0x23305c24	9.560491e-18
21	0xba5e383b	-0.0008477007
22	0x39e2209f	0.00043130384
23	0x38eac0fa	0.00011193934
24	0x3a38b4a0	0.0007045958
25	0x3a06219d	0.0005116703
26	0x3a7aba7b	0.0009564531
27	0xbac28be5	-0.0014842717
28	0x3a2b3076	0.00065303536
29	0x3aa8d15e	0.0012879779
30	0xb78c5d5e	-1.6732778e-05
31	0x3b219662	0.0024656286
32	0xb893d5a9	-7.0493035e-05
33	0xbaabd60a	-0.0013110053
34	0x38f7b8c1	0.00011812291
35	0x3aeeea26	0.0018227741
36	0xbaf2168c	-0.0018469854
37	0x397a0068	0.00023842009
38	0xba399fa5	-0.0007080979
39	0xb7e2694a	-2.6990328e-05
40	0xbaa8c8cd	-0.0012877226
41	0xb9b9348d	-0.00035325103
42	0x3b0db574	0.0021623047
43	0x39a8f358	0.00032224762
44	0xba73601f	-0.00092840375
45	0x39ab3e28	0.00032661972
46	0xba0087d5	-0.0004903053
47	0x3a04e914	0.0005070132
48	0xbb05741c	-0.0020363396
49	0xba1a2d4f	-0.00058813853
50	0xb884cb17	-6.332079e-05
51	0xb8e788a0	-0.00011040387
52	0x3a79b36e	0.00095253333
53	0xac89868d	-3.9087123e-12
54	0x3ae753e9	0.0017648909
55	0x3a91f14a	0.0011134532
56	0x3a67d778	0.0008844058
57	0x39d29613	0.00040166135
58	0x38223d49	3.8680886e-05
59	0x3b72ebc0	0.0037066787
60	0xb9d4a67f	-0.0004055984
61	0xba7d2673	-0.00096569135
62	0xbaace49d	-0.0013190691
63	0x3a6cd3b8	0.0009034234
64	0x3a52555a	0.00080235826
65	0xba6de8b6	-0.0009075509
66	0xbb1ebac9	-0.002422022
67	0xbab2169c	-0.001358706
68	0x39d1ae60	0.00039993506
69	0xbab2d88e	-0.0013644861
70	0x00000000	0.0
71	0xbae40428	-0.0017396258
72	0xb84e6154	-4.920487e-05
73	0xba0d88e1	-0.00053991197
74	0x3b02d654	0.0019964175
75	0xb989ae90	-0.00026260735
76	0xba345211	-0.0006878684
77	0x3a0f5482	0.000546761
78	0xbaf78cb0	-0.0018886533
79	0x38e15199	0.00010744035
80	0x3a0e807e	0.0005436017
81	0x3a28f672	0.00064454146
82	0xba278766	-0.00063907204
83	0xb7611b06	-1.3417337e-05
84	0xb7305748	-1.0510739e-05
85	0x3a044571	0.0005045748
86	0x3aa6d23c	0.001272745
87	0x3a050b91	0.0005075271
88	0xbad7702a	-0.0016436626
89	0x3b026417	0.0019896084
90	0x3b2b66a3	0.0026153706
91	0x39e0fd25	0.00042913217
92	0x3aedeb7e	0.0018151847
93	0xb996d610	-0.00028769718
94	0xbaf493eb	-0.0018659806
95	0x35402729	7.158256e-07
96	0xb830c62f	-4.2146243e-05
97	0xb8b4d3d7	-8.622527e-05
98	0xba4a44bb	-0.000771593
99	0xb9f073ba	-0.0004586259
100	0xbb13d071	-0.002255466
101	0x3af42588	0.0018626908
102	0x3745d6dc	1.1792141e-05
103	0xbac9455b	-0.0015355753
104	0x86979e92	-5.7032885e-35
105	0xbb234441	-0.0024912509
106	0xb9ac0027	-0.0003280651
107	0x3ada5926	0.0016658648
108	0xba79ac95	-0.0009524313
109	0xbab786c0	-0.0014001951
110	0xbadfb848	-0.001706847
111	0xb8873354	-6.446862e-05
112	0xba2b87de	-0.0006543378
113	0xba7aae7f	-0.0009562745
114	0xb95e3326	-0.00021190624
115	0x3a4d8c8c	0.00078410725
116	0xb82a912f	-4.066637e-05
117	0x37836836	1.5664944e-05
118	0x3acad7f5	0.0015475737
119	0x3aa12550	0.0012294445
120	0x3a0dfff1	0.00054168614
121	0x3ae6fcb7	0.0017622922
122	0x39e016d6	0.00042741623
123	0x391e8b1a	0.00015119874
124	0xb70b8f5b	-8.318423e-06
125	0xba254e43	-0.00063059124
126	0xbad18717	-0.0015985694
127	0xba84ac8f	-0.0010122227
128	0x3a44b881	0.00075043
129	0x39b0fe37	0.0003375874
130	0x396088d3	0.00021413276
131	0xb9a86fc3	-0.00032126726
132	0x39b62fe3	0.00034749424
133	0x390c9d33	0.00013410002
134	0x385545f4	5.0848306e-05
135	0x3a742c97	0.0009314506
136	0xb927c578	-0.00015999924
137	0xb9ad52e5	-0.00033058893
138	0xb924b207	-0.00015706579
139	0x39bb1c72	0.00035688613
140	0x3102d1f8	1.9036843e-09
141	0x3aa5d07a	0.0012650632
142	0xba0318bc	-0.0005000939
143	0x3b176ee5	0.002310687
144	0x3a889125	0.0010419233
145	0xba3e5e06	-0.00072619354
146	0x3b09193a	0.0020919577
147	0xbafec235	-0.001943654
148	0xb9c87d34	-0.00038240256
149	0x3a264604	0.00063428306
150	0xbaae62ae	-0.0013304555
151	0xba7f38b5	-0.0009735928
152	0xba58f3e3	-0.0008276088
153	0x3a42fbd8	0.00074380403
154	0xb8bcc8aa	-9.001915e-05
155	0x3b14bbb6	0.0022694892
156	0xb9df7b02	-0.00042625522
157	0xba01d7c7	-0.0004953113
158	0x382a0914	4.0539613e-05
159	0xba60ee77	-0.0008580456
160	0x39b20c13	0.00033959802
161	0x3a277240	0.0006387569
162	0xb9a48cac	-0.00031385326
163	0x38826747	6.21812e-05
164	0xbb05e12e	-0.0020428407
165	0x1eb7aa44	1.9446299e-20
166	0xbade85c1	-0.0016977118
167	0xbb2004be	-0.002441689
168	0xba0093cf	-0.00049048377
169	0xb8ef46f9	-0.00011409628
170	0xb994b1c4	-0.00028361205
171	0xb936d090	-0.00017434568
172	0xbabafce8	-0.0014266046
173	0xb921f95f	-0.00015447054
174	0xb86f9dbb	-5.712894e-05
175	0x3b00d197	0.0019656175
176	0xb909ccaf	-0.00013141589
177	0x3afb0877	0.0019152303
178	0xb78bacbf	-1.6650532e-05
179	0xb9d0517f	-0.0003973357
180	0xbb849cba	-0.0040470036
181	0xbaac663c	-0.0013153027
182	0x39b9d8ae	0.0003544739
183	0x3a60670c	0.0008560277
184	0x3a87aab3	0.0010350555
185	0xba245c04	-0.0006269815
186	0xb9bb7f62	-0.00035762327
187	0xb9d7de66	-0.00041173695
188	0xbae91250	-0.0017781947
189	0x3aa4310c	0.0012526824
190	0xac04897d	-1.883465e-12
191	0xb093005a	-1.0695758e-09
192	0x3a631964	0.0008663146
193	0x3b5032d6	0.0031768582
194	0xb8d28236	-0.00010037834
195	0xb9d0e322	-0.0003984208
196	0xa8805d51	-1.4251324e-14
197	0xba89240e	-0.0010463016
198	0xbac3bcad	-0.0014933549
199	0x2f151aab	1.3560945e-10
200	0x3aa5be3a	0.0012645193
201	0xb9d593fd	-0.00040736786
202	0xb994507c	-0.00028288725
203	0xba357fc1	-0.0006923639
204	0xb9f64fa9	-0.00046980128
205	0xbaba37e8	-0.0014207335
206	0xbadaac34	-0.0016683401
207	0x39253735	0.00015756192
208	0x39bbe840	0.0003584046
209	0x37ea59b4	2.7936745e-05
210	0x37d8b245	2.583222e-05
211	0x38a555ae	7.883772e-05
212	0x396e4020	0.00022721337
213	0xba69d786	-0.000892036
214	0x2a9091f6	2.568082e-13
215	0x3a7ff7d9	0.000976441
216	0xb9fcf0ae	-0.00048244506
217	0xba3af7c3	-0.0007132256
218	0xba802d1e	-0.0009779071
219	0xba5b3164	-0.0008361547
220	0xb8c442f6	-9.358481e-05
221	0x38a0cb53	7.6672666e-05
222	0x3b10c1a3	0.0022088073
223	0xb7e0fe97	-2.6821433e-05
224	0xbac54d7e	-0.0015053002
225	0xb9b70498	-0.00034907903
226	0xb9ecc0ca	-0.00045157067
227	0x3af47bd2	0.0018652624
228	0x365c18ea	3.2797057e-06
229	0xbabe4a96	-0.0014518078
230	0x389ac5b1	7.380115e-05
231	0xba1e77a5	-0.000604505
232	0x92a53f4b	-1.0428567e-27
233	0xbb552f74	-0.0032529505
234	0xbafbf56a	-0.0019222919
235	0xb8e7c1fd	-0.000110510715
236	0xb8ca1541	-9.6360694e-05
237	0xb849ab3c	-4.808161e-05
238	0x3a0f55f0	0.0005467823
239	0x393358ed	0.00017103898
240	0xba1b665c	-0.00059280335
241	0xbac7d77a	-0.0015246712
242	0xbaad8fa0	-0.0013241656
243	0x39e89746	0.00044363196
244	0xb8cdf92e	-9.821575e-05
245	0x2cc0b460	5.476994e-12
246	0x3a99e683	0.0011741671
247	0xbab181ba	-0.001354269
248	0x3ae1f87c	0.0017240192
249	0x358b8b16	1.0396786e-06
250	0xb819f4b0	-3.6705926e-05
251	0xba6dcb23	-0.0009071102
252	0x33636edf	5.2953393e-08
253	0xb8775464	-5.8967984e-05
254	0xba861c39	-0.00102318
255	0xb55fe690	-8.3409486e-07

network_body._body_endoder.seq_layers.4.weight f4 [300, 300]
0	0xbda0cb18	-0.07851237
1	0x3d4af85d	0.049553264
2	0x3d2986e8	0.041388422
3	0xbda384e9	-0.07984335
4	0x3dd2f20b	0.10300072
5	0x3c015334	0.007893372
6	0x3ce7c84b	0.02829375
7	0x3c4fa437	0.012673429
8	0xbd6a0011	-0.05712897
9	0xbdd0ed84	-0.102015525
10	0xbbf5e4c6	-0.0075040786
11	0xbbc0dd9a	-0.005885792
12	0x3c0cc9bb	0.008593018
13	0xbdab8640	-0.083752155
14	0xbd70edee	-0.058820657
15	0xbd1b973a	-0.037986018
16	0xbd87c1f5	-0.06628791
17	0x3cb71efb	0.02235364
18	0xbbae4fb3	-0.0053195595
19	0xbd4651e2	-0.048417933
20	0xbd0320a7	-0.03201356
21	0x3bfc7bd3	0.0077051907
22	0x3c9b47fd	0.018955225
23	0x3c904bfe	0.01761436
24	0xbcaa804b	-0.020813128
25	0x3bbf772d	0.0058430643
26	0x3d113719	0.035452936
27	0xbdfdb9c9	-0.12388951
28	0x3d7d18a1	0.061791066
29	0xbdc9959f	-0.09842991
30	0x3dc43e1f	0.09582161
31	0xbcc3037d	-0.023805374
32	0x3dbbf5cf	0.09177744
33	0xbcf5d04a	-0.030006547
34	0x3c803c1c	0.015653662
35	0xbdb2d6eb	-0.087323986
36	0x3d0bcd92	0.034131594
37	0xbb58ac34	-0.0033061625
38	0x3bf033e3	0.007330404
39	0x3ca95ece	0.02067509
40	0x3dfde771	0.123976596
41	0xbcaedbbf	-0.021345017
42	0xbcaf9f37	-0.021438224
43	0xbd982f03	-0.07430842
44	0x3cc4603e	0.023971673
45	0xbc8f0948	-0.01746048
46	0x3d46901f	0.04847729
47	0xbd04c72a	-0.0324165
48	0x3ad45d10	0.0016202051
49	0xbd55553b	-0.052083235
50	0xbd0da59a	-0.034581758
51	0x39af47cc	0.00033432094
52	0xbd3b78ef	-0.045769628
53	0xbd03984b	-0.03212766
54	0xbcd143b4	-0.025544979
55	0x3c0a4277	0.008438698
56	0x3da19b54	0.078909546
57	0xbb5824d7	-0.0032980943
58	0xbc7f2e41	-0.015574993
59	0x3d8ecb65	0.06972388
60	0x3d382178	0.044953793
61	0xbd3897bc	-0.04506658
62	0x3cb2d124	0.021828242
63	0x3cd2abf3	0.025716757
64	0xbd92506b	-0.07144245
65	0xbd188174	-0.03723283
66	0x3de972d2	0.11398853
67	0x3dc4c5e3	0.096080564
68	0xbda51ea0	-0.08062482
69	0xbc3882e5	-0.011261676
70	0xbd256f2b	-0.04038922
71	0xbda21753	-0.07914605
72	0xbd993555	-0.074808754
73	0x3d9775f2	0.07395543
74	0x3d8408a8	0.064469635
75	0x3d4eb566	0.050465964
76	0x3d271576	0.04079195
77	0xbd7a7f68	-0.06115666
78	0x3d9ec064	0.07751539
79	0xbd5039e6	-0.050836466
80	0x3d7e473d	0.062079657
81	0x3ddc646a	0.1076134
82	0x3cb6cd9f	0.022314845
83	0xbb799b60	-0.0038086995
84	0x3c76db69	0.01506696
85	0xbd7ea24d	-0.0621665
86	0xbd101e53	-0.03518517
87	0xbda19377	-0.07889455
88	0xbc118022	-0.008880647
89	0x3d961a8e	0.07329284
90	0x3c921216	0.01783089
91	0x3cc996f0	0.024608105
92	0x3c88c056	0.016693275
93	0xbcce0c42	-0.02515233
94	0x3ce0d0ba	0.027443279
95	0xbd72165f	-0.059103366
96	0x3dc61977	0.09672826
97	0xbd73617e	-0.059419148
98	0x3e0caa29	0.13736786
99	0x3dd94bee	0.106101856
100	0x3d0e675f	0.03476655
101	0xbc32a1d9	-0.010902845
102	0xbd955261	-0.07291103
103	0xbd75a691	-0.059973303
104	0xbd4c84e8	-0.049931437
105	0xbcd45d93	-0.025923526
106	0xbd47407a	-0.048645474
107	0x3e0f3c72	0.13987902
108	0x3d2369d8	0.039895862
109	0xbca94a56	-0.020665329
110	0x3b158279	0.0022813363
111	0x3c5a4423	0.013321909
112	0x3b1d2441	0.0023977908
113	0x3d94163d	0.07230804
114	0x3e1d76fb	0.15377419
115	0xbd61378d	-0.054984618
116	0x3bfa1037	0.0076313275
117	0xbc8f8182	-0.017517809
118	0x3cae2ec1	0.021262528
119	0xbd5aa503	-0.053380024
120	0x3dc2462c	0.094860405
121	0xbc060d6e	-0.008181913
122	0x3c8fb837	0.017543895
123	0xbdb46ae8	-0.08809453
124	0xbd294ecf	-0.041334923
125	0x3d85cf23	0.06533649
126	0xbd40902f	-0.047012504
127	0xbc1a44e8	-0.009415843
128	0xbd4e09be	-0.05030226
129	0xbc8c0bef	-0.017095534
130	0xbd1a9719	-0.037741754
131	0xbb179cfe	-0.0023134346
132	0xbc801788	-0.01563622
133	0xbcb4503a	-0.022010911
134	0x3cd6e2d9	0.026231216
135	0x3d8cb9ca	0.06871374
136	0x3c21a59a	0.009866143
137	0xbdd5df18	-0.104429424
138	0xbdb80215	-0.08984772
139	0x3cea83b1	0.028627248
140	0xbcf57461	-0.02996272
141	0xbbf87fcb	-0.0075835935
142	0xbd1da9fd	-0.03849219
143	0x3d67a867	0.056557085
144	0x3d801ad4	0.06255117
145	0xbc7736d1	-0.015088753
146	0xbcfe70f9	-0.031059729
147	0x3d9816b6	0.07426207
148	0xbd60be61	-0.05486906
149	0xbd739d53	-0.059476208
150	0xbe1c8aab	-0.15287273
151	0x3d95ba59	0.073109336
152	0xbda54e43	-0.08071568
153	0xbde9deb5	-0.11419431
154	0x3c253365	0.010083054
155	0x3d095661	0.033529643
156	0x3d59e378	0.053195447
157	0xbd53aebf	-0.051680323
158	0x3d045834	0.03231068
159	0x3ddc588d	0.10759077
160	0xbe02c368	-0.12769854
161	0xbc1c7624	-0.009549651
162	0xbddead1b	-0.10872861
163	0x3b300cac	0.0026863022
164	0x3da4c63f	0.08045625
165	0x3dd946c3	0.106092
166	0xbdd03d5f	-0.101679556
167	0x3d3d0c67	0.046154406
168	0x3dea5345	0.11441664
169	0x3d8fb123	0.07016208
170	0x3ad43448	0.0016189897
171	0x3b679f7c	0.0035342863
172	0xbdc79ddc	-0.09746906
173	0x3ca27774	0.01983235
174	0x3b9f1748	0.0048550703
175	0xbda7010a	-0.08154495
176	0x3c175285	0.009235983
177	0xbddbc7f7	-0.107315
178	0xbd8d1ed4	-0.068906456
179	0xbcb02049	-0.02149977
180	0x3ccd1208	0.025033012
181	0xbc9578a2	-0.018245999
182	0x3d3c8b5c	0.04603134
183	0xbcd175c3	-0.025568848
184	0xbc57d7f9	-0.0131740505
185	0x3df969d3	0.121783875
186	0x3ccd94ca	0.025095362
187	0xbdc7792f	-0.09739911
188	0xbd95268d	-0.072827436
189	0x3d6c1e89	0.057646308
190	0xbd9a11a2	-0.075228944
191	0xbb0d3586	-0.0021546795
192	0x3cb02381	0.021501305
193	0xbda7acce	-0.08187257
194	0x3d5b1077	0.0534825
195	0xbd2e0273	-0.042482805
196	0x3b554a11	0.0032545368
197	0x3c8b5848	0.01700987
198	0xbd5092db	-0.050921302
199	0x3dd786e4	0.10523775
200	0x3dae0d26	0.084986016
201	0x3d77051d	0.06030761
202	0xbccf6156	-0.025314968
203	0xbbcaf237	-0.006193425
204	0x3cb657b4	0.022258617
205	0xbd176303	-0.03695966
206	0x3d3c56e5	0.045981307
207	0xbd8c041d	-0.06836722
208	0xbd0d3b25	-0.034480233
209	0x3d3324d4	0.043736294
210	0xbda67bd5	-0.08129088
211	0xbd11de67	-0.03561249
212	0x3cdc35e7	0.026881171
213	0x3be5f106	0.0070172576
214	0xbda8a5b0	-0.082347274
215	0x3e2413ad	0.1602313
216	0x3d18b522	0.037282117
217	0xbdb47f83	-0.088133834
218	0xbda8e9c3	-0.082477115
219	0x3d3ea23b	0.046541434
220	0xbd870686	-0.06593041
221	0x3db86009	0.09002692
222	0xbd6bca85	-0.057566185
223	0x3da130d4	0.07870641
224	0x3d04a99d	0.03238832
225	0xbdcaf977	-0.09910863
226	0xbd454384	-0.04816009
227	0x3d4c104d	0.049820233
228	0x3c8aa103	0.01692248
229	0x3d26376e	0.040580206
230	0xbc6ce6a6	-0.014459288
231	0xbbad0dc7	-0.0052811834
232	0x3dc07b41	0.09398509
233	0xbd76d5d9	-0.060262535
234	0x3d68ff3b	0.05688403
235	0x3b14fcad	0.0022733614
236	0x3ca54032	0.020172212
237	0x3bb919ff	0.005648851
238	0xbcc21053	-0.023689425
239	0x3b8b447e	0.0042501083
240	0xbc3c72a0	-0.011501938
241	0x3d00e31f	0.0314666
242	0xbd5e1401	-0.054218296
243	0x3d223235	0.039598662
244	0x3c480b76	0.012209764
245	0x3b6a1fbf	0.0035724489
246	0xbde1ffc1	-0.11035109
247	0x3c905d15	0.01762251
248	0xbdf5042e	-0.11963688
249	0x3c94493c	0.018101327
250	0xbcd52e0c	-0.026022933
251	0x3da1aeb6	0.078946516
252	0xbc9ba9db	-0.019001892
253	0xbde90321	-0.1137755
254	0x3cfed985	0.03110958
255	0xbc8b068a	-0.016970892

network_body._body_endoder.seq_layers.4.bias f4 [300]
0	0xb9f95a96	-0.00047560473
1	0x39e6170c	0.0004388619
2	0xb9fe55bb	-0.0004851053
3	0x3b1d0362	0.0023958315
4	0x30657108	8.347034e-10
5	0x1880e18f	3.331498e-24
6	0xbb25dcb8	-0.002530856
7	0xba3e5431	-0.00072604703
8	0xba799a73	-0.0009521611
9	0xba999554	-0.0011717477
10	0x39a45d82	0.00031350186
11	0xb8aeb386	-8.3304054e-05
12	0x3a479924	0.0007614067
13	0x3a8bf21d	0.0010677014
14	0xb9dbcd0a	-0.000419237
15	0xa910bde5	-3.213913e-14
16	0x3aa8f93a	0.0012891658
17	0x3a8a1527	0.0010534868
18	0x3b21d72a	0.0024694898
19	0x8f560610	-1.0552182e-29
20	0x3b6e4109	0.0036354682
21	0xba9ce2e1	-0.0011969471
22	0x3ab14646	0.0013524971
23	0xba6cca34	-0.0009032816
24	0xbb1294d7	-0.0022366547
25	0x39caed99	0.00038705466
26	0xba089a5b	-0.0005210989
27	0xb6cfea92	-6.1963883e-06
28	0x3a82aefd	0.0009970363
29	0xba2e0361	-0.0006638077
30	0xb9492ecf	-0.00019186291
31	0x3a5c91db	0.0008414068
32	0xbaa23480	-0.0012375265
33	0xba4ccae4	-0.00078122155
34	0xba6e8920	-0.0009099413
35	0x3a95ad5c	0.0011419463
36	0xba8a1d6c	-0.0010537333
37	0xb5759015	-9.147928e-07
38	0xb9a977d4	-0.0003232347
39	0xba033434	-0.0005005032
40	0x3b46f4e1	0.0030358362
41	0x2d9349e8	1.6744786e-11
42	0xba2c42ba	-0.00065712223
43	0xba43b793	-0.00074660144
44	0x3907cc3f	0.00012950691
45	0x3ab85b11	0.0014065226
46	0x3b4ae599	0.0030959605
47	0xbad7ad78	-0.0016454896
48	0x39a7f9f1	0.00032038943
49	0xba9da882	-0.0012028369
50	0xba59e07d	-0.00083113444
51	0x3a3f8002	0.00073051464
52	0x3b3a2f87	0.0028409676
53	0xb924785b	-0.00015685095
54	0x3b800c13	0.0039076894
55	0x3a28b051	0.00064349646
56	0x3b2becfd	0.0026233785
57	0xba2bced2	-0.0006553951
58	0xba5f8bcb	-0.00085276057
59	0x3a2b122e	0.00065258413
60	0x39edf21b	0.00045384545
61	0xb978344a	-0.00023670602
62	0x3b44d546	0.0030034347
63	0xba38901f	-0.00070405187
64	0x3994cea2	0.00028382713
65	0x3b0b2a38	0.002123488
66	0x39d2e326	0.0004022356
67	0xba9451f9	-0.0011315934
68	0x3a14ffbe	0.00056838605
69	0x3a3d9a61	0.0007232782
70	0x396aaae5	0.00022379642
71	0x39a7b060	0.00031984132
72	0xba69a600	-0.00089129806
73	0x3aa4e5ee	0.0012580731
74	0xb80ef4fe	-3.4083605e-05
75	0x3705bd8a	7.971548e-06
76	0x3a86f547	0.0010296487
77	0xba2ec8e9	-0.0006667511
78	0xba6a4be8	-0.00089377025
79	0xb9907b0f	-0.00027557506
80	0xb99e67a3	-0.00030213324
81	0xba8899f8	-0.0010421863
82	0x39fa7d76	0.00047777192
83	0x38944e92	7.071825e-05
84	0x3aa83990	0.0012834538
85	0xb97f88ac	-0.0002436961
86	0x3ae619fd	0.0017555353
87	0xbb421603	-0.002961517
88	0x3685e2e3	3.990122e-06
89	0xba15f690	-0.00057206396
90	0xbb3e3dea	-0.0029028603
91	0x311b4c56	2.259886e-09
92	0x30429652	7.0790407e-10
93	0x3b3ce6be	0.0028824056
94	0xb34e22d0	-4.7994774e-08
95	0x3b11aee2	0.0022229482
96	0xbab7875c	-0.0014002132
97	0xba025e33	-0.0004973143
98	0x399c0c41	0.00029763769
99	0xb05c3c0a	-8.0120854e-10
100	0xba918919	-0.001110348
101	0x3a82c67f	0.0009977369
102	0x3aa270b0	0.0012393203
103	0xba58ba46	-0.0008267503
104	0x3a8a3292	0.0010543636
105	0x3c1ba7a9	0.0095004225
106	0x1506aad4	2.7195844e-26
107	0x3b0611b7	0.0020457336
108	0xba4ae1ee	-0.00077393546
109	0x9aa35db6	-6.756662e-23
110	0xba5a2a44	-0.0008322338
111	0xba3b53b6	-0.0007145958
112	0x3a3f27db	0.00072920107
113	0x3b0103d2	0.0019686115
114	0xba920753	-0.0011141099
115	0xba11210c	-0.00055362354
116	0xba0a2cf7	-0.00052709825
117	0xba5d46ba	-0.000844102
118	0x3a1e23dc	0.0006032565
119	0x12a5b29b	1.0456994e-27
120	0x3aece0f7	0.0018072416
121	0x3ac4c4f7	0.0015012313
122	0xba86f53b	-0.0010296473
123	0x395bcf79	0.00020962757
124	0xba2bc8cb	-0.0006553053
125	0xbaf3f127	-0.0018611298
126	0xba49ec9e	-0.00077028
127	0xb9728b93	-0.00023130914
128	0x3ac076c6	0.0014683835
129	0x3a06970e	0.0005134203
130	0x3a2fbf36	0.0006704213
131	0x3b1acfcb	0.002362239
132	0xb9456ad6	-0.00018827184
133	0x3ad12cb5	0.0015958758
134	0xba75cef6	-0.0009376848
135	0xb98a7306	-0.0002640711
136	0xb7ae0a1c	-2.0747124e-05
137	0x3b011f63	0.0019702546
138	0xb9bcd5a6	-0.00036017335
139	0xb9c101ac	-0.00036813074
140	0xba9e50d4	-0.0012078532
141	0xbb0b4d4a	-0.0021255785
142	0xba7c601e	-0.00096273597
143	0x3a614de1	0.0008594674
144	0x3995a317	0.00028541006
145	0x2af2c2c6	4.3122987e-13
146	0xba90251a	-0.0010997385
147	0xba45c337	-0.0007544043
148	0xba515fd9	-0.00079869997
149	0xba2ec803	-0.00066673773
150	0x398d5dd4	0.00026963523
151	0x09ed114f	5.707195e-33
152	0xba8b35d2	-0.0010620898
153	0xba2ec9cf	-0.0006667645
154	0x3281c030	1.5104973e-08
155	0xb76a0f47	-1.3951044e-05
156	0x1a90c70b	5.9878575e-23
157	0x3b14b4b1	0.0022690708
158	0x3bd91ffe	0.006626128
159	0x3a82f3f0	0.0009990912
160	0xba73be2e	-0.00092980533
161	0x38ee5da4	0.00011366166
162	0x34d201e1	3.9116915e-07
163	0xa2fd203d	-6.860992e-18
164	0xba86f314	-0.0010295832
165	0xbb2b205f	-0.0026111824
166	0x3562c57f	8.4478955e-07
167	0xb9363421	-0.00017376292
168	0xb9b8dc5c	-0.00035259395
169	0xba28b30a	-0.00064353703
170	0xba613d19	-0.0008592173
171	0xba492afd	-0.0007673947
172	0xbb315cec	-0.0027063442
173	0xba0ec07d	-0.0005445553
174	0x3b08427e	0.0020791586
175	0xba9246f4	-0.0011160062
176	0xbaea03bc	-0.0017853896
177	0xba6d7c66	-0.00090593693
178	0xbb0bc940	-0.002132967
179	0xb9067fba	-0.00012826818
180	0xb88ce756	-6.71881e-05
181	0x3a49e909	0.00077022664
182	0xba432cc8	-0.00074453326
183	0x3a26b9d5	0.00063600886
184	0xba03043e	-0.00049978856
185	0x39dd0f7b	0.0004216394
186	0xb89c4db8	-7.453136e-05
187	0x3829674f	4.0388953e-05
188	0xbb02405f	-0.0019874794
189	0xbadd9668	-0.0016905786
190	0xba35a069	-0.0006928505
191	0x39296b4d	0.00016157069
192	0x361bc9d5	2.3214282e-06
193	0xa2119212	-1.9728493e-18
194	0x39bd382f	0.0003609075
195	0xbad6576f	-0.0016352962
196	0xbb5032e6	-0.003176862
197	0x3ae0809f	0.0017128176
198	0xba8394ba	-0.0010038831
199	0xba39f88d	-0.0007094227
200	0x3a54c8e5	0.0008117094
201	0xbb0a91bb	-0.002114399
202	0xba102f30	-0.00055001955
203	0xb95dd56a	-0.00021155705
204	0x3a86b8b3	0.0010278433
205	0xbac8d675	-0.0015322702
206	0xbae30c10	-0.001732232
207	0x391f97bf	0.00015219951
208	0x39895dcd	0.00026200563
209	0x3a016561	0.0004936066
210	0x39885037	0.00025999706
211	0x3ab21f6e	0.0013589689
212	0x3a2e7c7d	0.00066561234
213	0x392bdfcb	0.000163912
214	0xbad735c8	-0.0016419226
215	0xbb1ae1ff	-0.002363324
216	0x3b992509	0.0046736044
217	0xbb062c10	-0.002047304
218	0x38cffda2	9.917772e-05
219	0x3a90ee95	0.0011057431
220	0x23588901	1.1738395e-17
221	0xba62582b	-0.0008634354
222	0xba56146b	-0.00081664947
223	0xb7b8f8c2	-2.2050346e-05
224	0xb9853c81	-0.00025412816
225	0xbae482e7	-0.0017434031
226	0xbaedcc36	-0.0018142525
227	0xba0af881	-0.0005301312
228	0xb8005448	-3.059607e-05
229	0x3af9a446	0.001904615
230	0xbaf50656	-0.0018693905
231	0x3b1e3d07	0.0024145262
232	0xb9f098de	-0.00045890262
233	0x3ad3162e	0.0016104633
234	0x39fbbd55	0.00048015514
235	0xba7697fd	-0.00094068033
236	0xba51e017	-0.0008006109
237	0x3942d8e4	0.0001858208
238	0x3a5dff9b	0.0008468569
239	0x8e4125ce	-2.3807289e-30
240	0xb9cf0b26	-0.00039490423
241	0x2306818a	7.2915855e-18
242	0x3a8083e0	0.0009804927
243	0xa486f89d	-5.8534404e-17
244	0xba587047	-0.0008256477
245	0x39e5d7ba	0.00043839013
246	0x3ab31a02	0.0013664367
247	0x39c20622	0.00037007133
248	0x3a9e4477	0.0012074847
249	0x3a2dd5ef	0.0006631305
250	0xb9ba5c44	-0.00035545428
251	0x3a6285cf	0.0008641155
252	0x3a7ef1da	0.000972537
253	0x3b11c596	0.0022243015
254	0x3a5ff998	0.0008543967
255	0x3a981708	0.0011603544

action_model._discrete_distribution.branches.0.weight f4 [3, 300]
0	0x3b82e5a0	0.0039946586
1	0xbb7d5498	-0.0038655158
2	0xbc32abf2	-0.010905253
3	0x3c199493	0.009373802
4	0x3b10dbe8	0.002210373
5	0x3b16c21e	0.0023003886
6	0xbb9e4236	-0.0048296703
7	0x3c01a91b	0.007913853
8	0x3bc2f061	0.0059490656
9	0xbc207e44	-0.009795729
10	0x39c568c9	0.0003765284
11	0xbbcabec7	-0.006187293
12	0xba33db61	-0.0006860998
13	0x3bdb307e	0.0066891303
14	0xbc39c42c	-0.011338275
15	0xbb933c03	-0.004493238
16	0x3b23ed58	0.0025013294
17	0x3bb3a032	0.0054817433
18	0x3c16270d	0.009164584
19	0xbbba6ea3	-0.0056894585
20	0xbc9499dd	-0.018139774
21	0x3c340c6f	0.0109892925
22	0x39d5bbf9	0.00040766576
23	0x3bc7eb29	0.0061010313
24	0xbca2d418	-0.019876525
25	0x3a927eed	0.0011176743
26	0xbb8ec79a	-0.0043572905
27	0xb91a7236	-0.00014729131
28	0xbbd52eef	-0.006505839
29	0x39eec71b	0.00045543243
30	0xbb545fb9	-0.0032405688
31	0xbba7a85b	-0.005116505
32	0x3beaf94c	0.007170832
33	0x3b3f654e	0.002920467
34	0xbbc78b1a	-0.0060895802
35	0xbbafbe2f	-0.005363248
36	0xbba86267	-0.0051386836
37	0x3b9f26a0	0.0048568994
38	0x3a5c9780	0.0008414909
39	0x3a9621c0	0.001145415
40	0xb7f719c6	-2.9456696e-05
41	0xbb198c96	-0.0023429743
42	0xbbd442c6	-0.0064776866
43	0xbaae159f	-0.001328159
44	0xb98b0653	-0.00026516858
45	0xbb1b8986	-0.0023733093
46	0xb9d2af02	-0.00040184712
47	0x3c087e9f	0.00833097
48	0xbbacab69	-0.005269457
49	0xbaacd3c3	-0.0013185669
50	0x39bcffdb	0.00036048781
51	0xbb315e6c	-0.0027064336
52	0xba3601e4	-0.0006943031
53	0x3b8a3d0b	0.0042187027
54	0x3c0ac003	0.008468631
55	0xbb3c4ae1	-0.0028731155
56	0x3ae32b0e	0.0017331557
57	0xbbf85921	-0.0075789844
58	0x3b7d0bac	0.0038611693
59	0xbc1507f2	-0.009096133
60	0x3b4ec69c	0.0031551486
61	0xbb1a96b0	-0.0023588352
62	0x3a5ce9ee	0.0008427192
63	0xb9c691df	-0.00037874185
64	0xba01ef40	-0.00049566105
65	0x3a0c45be	0.00053509686
66	0xbc1363e0	-0.00899598
67	0x3ba18936	0.004929687
68	0x3bb388f7	0.005478974
69	0xbc17adeb	-0.009257774
70	0xbb3d7915	-0.0028911282
71	0xbb7c3e92	-0.0038489443
72	0x3ba040f3	0.004890555
73	0x3a872237	0.001030988
74	0xbc1c7bee	-0.0095510315
75	0xba94dccf	-0.001135731
76	0xbad5b29b	-0.0016303839
77	0x3b13ba21	0.0022541361
78	0x3c0d25a0	0.0086149275
79	0x3acfe2f1	0.001586048
80	0x3b9c2c36	0.0047660125
81	0xbba10133	-0.004913473
82	0x3bda7dad	0.0066678138
83	0x39d78bfe	0.00041112298
84	0xbb1b4bd4	-0.002369632
85	0xbab10044	-0.0013504107
86	0xbc219ab9	-0.009863549
87	0xbb2a8730	-0.002602052
88	0x3c19d098	0.0093881115
89	0xbc1e1f7b	-0.00965106
90	0x3c2a9c77	0.010413281
91	0xbbc0a5ad	-0.005879125
92	0xb9f23180	-0.00046194717
93	0xbb60983e	-0.003427043
94	0x3c0a7079	0.008449667
95	0x3c8e9baa	0.01740821
96	0x3b9a0912	0.0047007883
97	0xbc27a1ea	-0.010231474
98	0x3bc5cbeb	0.006036272
99	0xbbbbb04e	-0.0057278043
100	0xbb5dde4f	-0.003385443
101	0xbba95ef5	-0.0051687905
102	0x3ae97f6f	0.0017814467
103	0xbc0711ec	-0.008244019
104	0xba949cb6	-0.0011338207
105	0xbc0f734a	-0.008755514
106	0xbb306e84	-0.0026921341
107	0xbc0e6ea2	-0.008693369
108	0xbbd37e01	-0.00645423
109	0x3ba363a3	0.004986243
110	0x3be4c704	0.0069817323
111	0x3a85aac6	0.0010197989
112	0x3b539056	0.0032282076
113	0xbc0ce142	-0.0085986275
114	0x3b218177	0.0024643817
115	0xbb400b02	-0.0029303436
116	0xbae82c8e	-0.0017713474
117	0x3b75f05f	0.0037527306
118	0x3b8f0c27	0.0043654623
119	0xbb2e155b	-0.0026563022
120	0xbb960a7b	-0.004578886
121	0xbc1eaeb6	-0.009685209
122	0xba0a2d6a	-0.00052710494
123	0xbc303f58	-0.01075729
124	0x3a8d4b96	0.0010779973
125	0x3b2f27c8	0.0026726592
126	0x3bc5493e	0.006020694
127	0x3b7e784a	0.0038829022
128	0x3a492048	0.0007672352
129	0x3b14d585	0.0022710275
130	0x3c2839c2	0.010267677
131	0xbc1c415d	-0.009537068
132	0xbb2c1a07	-0.002626063
133	0xbb81060e	-0.0039374894
134	0x3a21f83a	0.0006178651
135	0xbc2f65e8	-0.010705449
136	0xbc09aa96	-0.008402487
137	0xbac8a1e1	-0.0015307033
138	0xbb6e1b40	-0.003633216
139	0x3bbd3dd2	0.005775192
140	0xb9f8499d	-0.00047357092
141	0x3b245ead	0.0025080845
142	0xbb0c5896	-0.0021415106
143	0x3b9b3432	0.004736447
144	0xbc7dcbe6	-0.015490508
145	0xbb46b231	-0.0030318613
146	0x39844365	0.00025227215
147	0x3b8e12a2	0.0043357173
148	0xbc2099c1	-0.009802283
149	0x3b2f87f7	0.0026783922
150	0x3c1bf922	0.009519847
151	0xbbf25052	-0.007394829
152	0xbb728653	-0.0037006333
153	0x3ae0fb42	0.0017164724
154	0xbb97333e	-0.004614263
155	0xbb77b978	-0.0037799757
156	0xbbe84e17	-0.007089387
157	0xbbbc0b6b	-0.005738666
158	0xbd25099d	-0.04029237
159	0x3b927e26	0.0044706045
160	0x3b80d370	0.0039314553
161	0x3b909695	0.004412482
162	0x3b1feeb9	0.0024403764
163	0x3bb660f5	0.0055657574
164	0x3c39a295	0.0113302665
165	0x39c19dcd	0.000369294
166	0x3b3f0064	0.002914452
167	0xbb34fc5a	-0.0027616234
168	0x3aa230bd	0.0012374144
169	0x3b8dd207	0.0043280157
170	0x39d2d130	0.00040210178
171	0x3a98f698	0.001167017
172	0x3a4f5076	0.0007908413
173	0xba87f326	-0.0010372146
174	0xbb815efa	-0.0039480897
175	0x3bb356c4	0.0054729898
176	0xba0cac34	-0.00053662364
177	0xba697331	-0.00089054095
178	0x3ad1042d	0.0015946679
179	0xbbe0bb06	-0.0068582324
180	0xbb36e611	-0.0027908126
181	0xba809058	-0.0009808643
182	0x3a8b9eb2	0.0010652153
183	0x395c591b	0.0002101403
184	0xbc00fda6	-0.0078729745
185	0x3b2afbcf	0.002609003
186	0x3ad95c38	0.001658327
187	0xbc63f69b	-0.013913776
188	0xbc063a03	-0.008192542
189	0x3c375463	0.011189553
190	0x3bc393cb	0.005968546
191	0xbb70a185	-0.0036717367
192	0xba169b0b	-0.0005745149
193	0x3be015b8	0.0068385266
194	0xbb337a98	-0.0027386304
195	0x3b88852c	0.004166266
196	0xb993edf9	-0.00028215328
197	0xba911893	-0.0011069946
198	0xbc13150d	-0.008977187
199	0x3b233509	0.0024903438
200	0x3bd4fd2f	0.0064999084
201	0xba85bd2d	-0.0010203474
202	0x3b9f1863	0.004855202
203	0xbc3534ec	-0.011059981
204	0xbb60d0bf	-0.003430411
205	0xbb7eddfd	-0.003888964
206	0x3b8c05bb	0.004273144
207	0x3a8a9d62	0.0010575468
208	0xbb6c446d	-0.0036051527
209	0xbb83013c	-0.00399795
210	0x3b8e2a12	0.0043385113
211	0x3b45c7ad	0.003017883
212	0x3bb50c7b	0.0055251694
213	0x3a50d9b5	0.0007967011
214	0x3b925c68	0.004466582
215	0x3933b514	0.00017138227
216	0xbb08a4ef	-0.0020850261
217	0x3af14e30	0.0018410143
218	0xba9024c9	-0.0010997291
219	0x3bc4de3c	0.0060079377
220	0x3c2a62bc	0.010399517
221	0x3bff4383	0.0077900304
222	0xbc0565e4	-0.008141968
223	0xbb764f2b	-0.003758381
224	0xbbc00b78	-0.005860742
225	0x3c191449	0.009343215
226	0x3afdafb6	0.0019354734
227	0x3a98d62a	0.0011660506
228	0x3ba1b4f0	0.0049348995
229	0xbc332752	-0.010934668
230	0x3b7c775d	0.0038523294
231	0xbc243c64	-0.010024164
232	0x3b6b322c	0.003588806
233	0xbadf806a	-0.001705182
234	0x3b47adf8	0.0030468684
235	0x398ceb9d	0.00026878426
236	0xbafefd29	-0.001945411
237	0x3b35b5d4	0.0027726786
238	0x3b5fd323	0.0034152947
239	0xbb0296e6	-0.0019926368
240	0xbb9a1631	-0.0047023525
241	0x3c221316	0.009892246
242	0x398d0dbd	0.00026903852
243	0xbb7e8d52	-0.0038841558
244	0xbb6f1f9d	-0.003648735
245	0x3aa5bd22	0.0012644867
246	0x39adb67f	0.00033133102
247	0xbbb87483	-0.0056291237
248	0xbb1ae321	-0.0023633915
249	0xbc667772	-0.014066564
250	0xbbb40f10	-0.0054949597
251	0xbadddba8	-0.0016926425
252	0x3b0c80bf	0.0021439043
253	0x3b9060c2	0.0044060657
254	0x3b782fa3	0.003787019
255	0xbb88eb04	-0.0041784067

action_model._discrete_distribution.branches.0.bias f4 [3]
0	0xba5d98a7	-0.0008453228
1	0x3b6efc2c	0.0036466224
2	0xb85b01c2	-5.2215306e-05
